node {
  name: "init"
  op: "NoOp"
}
node {
  name: "global/Input_States"
  op: "Placeholder"
  device: "/job:thread/task:0/device:CPU:0"
  attr {
    key: "_output_shapes"
    value {
      list {
        shape {
          dim {
            size: 1
          }
          dim {
            size: 31
          }
        }
      }
    }
  }
  attr {
    key: "dtype"
    value {
      type: DT_FLOAT
    }
  }
  attr {
    key: "shape"
    value {
      shape {
        dim {
          size: 1
        }
        dim {
          size: 31
        }
      }
    }
  }
}
node {
  name: "global/_fully_connected_Layer_1/random_uniform/shape"
  op: "Const"
  device: "/job:thread/task:0/device:CPU:0"
  attr {
    key: "_output_shapes"
    value {
      list {
        shape {
          dim {
            size: 2
          }
        }
      }
    }
  }
  attr {
    key: "dtype"
    value {
      type: DT_INT32
    }
  }
  attr {
    key: "value"
    value {
      tensor {
        dtype: DT_INT32
        tensor_shape {
          dim {
            size: 2
          }
        }
        tensor_content: "\037\000\000\000\377\000\000\000"
      }
    }
  }
}
node {
  name: "global/_fully_connected_Layer_1/random_uniform/min"
  op: "Const"
  device: "/job:thread/task:0/device:CPU:0"
  attr {
    key: "_output_shapes"
    value {
      list {
        shape {
        }
      }
    }
  }
  attr {
    key: "dtype"
    value {
      type: DT_FLOAT
    }
  }
  attr {
    key: "value"
    value {
      tensor {
        dtype: DT_FLOAT
        tensor_shape {
        }
        float_val: -0.14484135806560516
      }
    }
  }
}
node {
  name: "global/_fully_connected_Layer_1/random_uniform/max"
  op: "Const"
  device: "/job:thread/task:0/device:CPU:0"
  attr {
    key: "_output_shapes"
    value {
      list {
        shape {
        }
      }
    }
  }
  attr {
    key: "dtype"
    value {
      type: DT_FLOAT
    }
  }
  attr {
    key: "value"
    value {
      tensor {
        dtype: DT_FLOAT
        tensor_shape {
        }
        float_val: 0.14484135806560516
      }
    }
  }
}
node {
  name: "global/_fully_connected_Layer_1/random_uniform/RandomUniform"
  op: "RandomUniform"
  input: "global/_fully_connected_Layer_1/random_uniform/shape"
  device: "/job:thread/task:0/device:CPU:0"
  attr {
    key: "T"
    value {
      type: DT_INT32
    }
  }
  attr {
    key: "_output_shapes"
    value {
      list {
        shape {
          dim {
            size: 31
          }
          dim {
            size: 255
          }
        }
      }
    }
  }
  attr {
    key: "dtype"
    value {
      type: DT_FLOAT
    }
  }
  attr {
    key: "seed"
    value {
      i: 0
    }
  }
  attr {
    key: "seed2"
    value {
      i: 0
    }
  }
}
node {
  name: "global/_fully_connected_Layer_1/random_uniform/sub"
  op: "Sub"
  input: "global/_fully_connected_Layer_1/random_uniform/max"
  input: "global/_fully_connected_Layer_1/random_uniform/min"
  device: "/job:thread/task:0/device:CPU:0"
  attr {
    key: "T"
    value {
      type: DT_FLOAT
    }
  }
  attr {
    key: "_output_shapes"
    value {
      list {
        shape {
        }
      }
    }
  }
}
node {
  name: "global/_fully_connected_Layer_1/random_uniform/mul"
  op: "Mul"
  input: "global/_fully_connected_Layer_1/random_uniform/RandomUniform"
  input: "global/_fully_connected_Layer_1/random_uniform/sub"
  device: "/job:thread/task:0/device:CPU:0"
  attr {
    key: "T"
    value {
      type: DT_FLOAT
    }
  }
  attr {
    key: "_output_shapes"
    value {
      list {
        shape {
          dim {
            size: 31
          }
          dim {
            size: 255
          }
        }
      }
    }
  }
}
node {
  name: "global/_fully_connected_Layer_1/random_uniform"
  op: "Add"
  input: "global/_fully_connected_Layer_1/random_uniform/mul"
  input: "global/_fully_connected_Layer_1/random_uniform/min"
  device: "/job:thread/task:0/device:CPU:0"
  attr {
    key: "T"
    value {
      type: DT_FLOAT
    }
  }
  attr {
    key: "_output_shapes"
    value {
      list {
        shape {
          dim {
            size: 31
          }
          dim {
            size: 255
          }
        }
      }
    }
  }
}
node {
  name: "global/_fully_connected_Layer_1/Weights"
  op: "VariableV2"
  device: "/job:master/task:0"
  attr {
    key: "_output_shapes"
    value {
      list {
        shape {
          dim {
            size: 31
          }
          dim {
            size: 255
          }
        }
      }
    }
  }
  attr {
    key: "container"
    value {
      s: ""
    }
  }
  attr {
    key: "dtype"
    value {
      type: DT_FLOAT
    }
  }
  attr {
    key: "shape"
    value {
      shape {
        dim {
          size: 31
        }
        dim {
          size: 255
        }
      }
    }
  }
  attr {
    key: "shared_name"
    value {
      s: ""
    }
  }
}
node {
  name: "global/_fully_connected_Layer_1/Weights/Assign"
  op: "Assign"
  input: "global/_fully_connected_Layer_1/Weights"
  input: "global/_fully_connected_Layer_1/random_uniform"
  device: "/job:master/task:0"
  attr {
    key: "T"
    value {
      type: DT_FLOAT
    }
  }
  attr {
    key: "_class"
    value {
      list {
        s: "loc:@global/_fully_connected_Layer_1/Weights"
      }
    }
  }
  attr {
    key: "_output_shapes"
    value {
      list {
        shape {
          dim {
            size: 31
          }
          dim {
            size: 255
          }
        }
      }
    }
  }
  attr {
    key: "use_locking"
    value {
      b: true
    }
  }
  attr {
    key: "validate_shape"
    value {
      b: true
    }
  }
}
node {
  name: "global/_fully_connected_Layer_1/Weights/read"
  op: "Identity"
  input: "global/_fully_connected_Layer_1/Weights"
  device: "/job:master/task:0"
  attr {
    key: "T"
    value {
      type: DT_FLOAT
    }
  }
  attr {
    key: "_class"
    value {
      list {
        s: "loc:@global/_fully_connected_Layer_1/Weights"
      }
    }
  }
  attr {
    key: "_output_shapes"
    value {
      list {
        shape {
          dim {
            size: 31
          }
          dim {
            size: 255
          }
        }
      }
    }
  }
}
node {
  name: "global/_fully_connected_Layer_1/Const"
  op: "Const"
  device: "/job:thread/task:0/device:CPU:0"
  attr {
    key: "_output_shapes"
    value {
      list {
        shape {
          dim {
            size: 255
          }
        }
      }
    }
  }
  attr {
    key: "dtype"
    value {
      type: DT_FLOAT
    }
  }
  attr {
    key: "value"
    value {
      tensor {
        dtype: DT_FLOAT
        tensor_shape {
          dim {
            size: 255
          }
        }
        float_val: 0.0
      }
    }
  }
}
node {
  name: "global/_fully_connected_Layer_1/Bias"
  op: "VariableV2"
  device: "/job:master/task:0"
  attr {
    key: "_output_shapes"
    value {
      list {
        shape {
          dim {
            size: 255
          }
        }
      }
    }
  }
  attr {
    key: "container"
    value {
      s: ""
    }
  }
  attr {
    key: "dtype"
    value {
      type: DT_FLOAT
    }
  }
  attr {
    key: "shape"
    value {
      shape {
        dim {
          size: 255
        }
      }
    }
  }
  attr {
    key: "shared_name"
    value {
      s: ""
    }
  }
}
node {
  name: "global/_fully_connected_Layer_1/Bias/Assign"
  op: "Assign"
  input: "global/_fully_connected_Layer_1/Bias"
  input: "global/_fully_connected_Layer_1/Const"
  device: "/job:master/task:0"
  attr {
    key: "T"
    value {
      type: DT_FLOAT
    }
  }
  attr {
    key: "_class"
    value {
      list {
        s: "loc:@global/_fully_connected_Layer_1/Bias"
      }
    }
  }
  attr {
    key: "_output_shapes"
    value {
      list {
        shape {
          dim {
            size: 255
          }
        }
      }
    }
  }
  attr {
    key: "use_locking"
    value {
      b: true
    }
  }
  attr {
    key: "validate_shape"
    value {
      b: true
    }
  }
}
node {
  name: "global/_fully_connected_Layer_1/Bias/read"
  op: "Identity"
  input: "global/_fully_connected_Layer_1/Bias"
  device: "/job:master/task:0"
  attr {
    key: "T"
    value {
      type: DT_FLOAT
    }
  }
  attr {
    key: "_class"
    value {
      list {
        s: "loc:@global/_fully_connected_Layer_1/Bias"
      }
    }
  }
  attr {
    key: "_output_shapes"
    value {
      list {
        shape {
          dim {
            size: 255
          }
        }
      }
    }
  }
}
node {
  name: "global/_fully_connected_Layer_1/MatMul"
  op: "MatMul"
  input: "global/Input_States"
  input: "global/_fully_connected_Layer_1/Weights/read"
  device: "/job:thread/task:0/device:CPU:0"
  attr {
    key: "T"
    value {
      type: DT_FLOAT
    }
  }
  attr {
    key: "_output_shapes"
    value {
      list {
        shape {
          dim {
            size: 1
          }
          dim {
            size: 255
          }
        }
      }
    }
  }
  attr {
    key: "transpose_a"
    value {
      b: false
    }
  }
  attr {
    key: "transpose_b"
    value {
      b: false
    }
  }
}
node {
  name: "global/_fully_connected_Layer_1/add"
  op: "AddV2"
  input: "global/_fully_connected_Layer_1/MatMul"
  input: "global/_fully_connected_Layer_1/Bias/read"
  device: "/job:thread/task:0/device:CPU:0"
  attr {
    key: "T"
    value {
      type: DT_FLOAT
    }
  }
  attr {
    key: "_output_shapes"
    value {
      list {
        shape {
          dim {
            size: 1
          }
          dim {
            size: 255
          }
        }
      }
    }
  }
}
node {
  name: "global/_fully_connected_Layer_1/Relu"
  op: "Relu"
  input: "global/_fully_connected_Layer_1/add"
  device: "/job:thread/task:0/device:CPU:0"
  attr {
    key: "T"
    value {
      type: DT_FLOAT
    }
  }
  attr {
    key: "_output_shapes"
    value {
      list {
        shape {
          dim {
            size: 1
          }
          dim {
            size: 255
          }
        }
      }
    }
  }
}
node {
  name: "global/_fully_connected_Layer_2/random_uniform/shape"
  op: "Const"
  device: "/job:thread/task:0/device:CPU:0"
  attr {
    key: "_output_shapes"
    value {
      list {
        shape {
          dim {
            size: 2
          }
        }
      }
    }
  }
  attr {
    key: "dtype"
    value {
      type: DT_INT32
    }
  }
  attr {
    key: "value"
    value {
      tensor {
        dtype: DT_INT32
        tensor_shape {
          dim {
            size: 2
          }
        }
        tensor_content: "\377\000\000\000\377\000\000\000"
      }
    }
  }
}
node {
  name: "global/_fully_connected_Layer_2/random_uniform/min"
  op: "Const"
  device: "/job:thread/task:0/device:CPU:0"
  attr {
    key: "_output_shapes"
    value {
      list {
        shape {
        }
      }
    }
  }
  attr {
    key: "dtype"
    value {
      type: DT_FLOAT
    }
  }
  attr {
    key: "value"
    value {
      tensor {
        dtype: DT_FLOAT
        tensor_shape {
        }
        float_val: -0.10846523195505142
      }
    }
  }
}
node {
  name: "global/_fully_connected_Layer_2/random_uniform/max"
  op: "Const"
  device: "/job:thread/task:0/device:CPU:0"
  attr {
    key: "_output_shapes"
    value {
      list {
        shape {
        }
      }
    }
  }
  attr {
    key: "dtype"
    value {
      type: DT_FLOAT
    }
  }
  attr {
    key: "value"
    value {
      tensor {
        dtype: DT_FLOAT
        tensor_shape {
        }
        float_val: 0.10846523195505142
      }
    }
  }
}
node {
  name: "global/_fully_connected_Layer_2/random_uniform/RandomUniform"
  op: "RandomUniform"
  input: "global/_fully_connected_Layer_2/random_uniform/shape"
  device: "/job:thread/task:0/device:CPU:0"
  attr {
    key: "T"
    value {
      type: DT_INT32
    }
  }
  attr {
    key: "_output_shapes"
    value {
      list {
        shape {
          dim {
            size: 255
          }
          dim {
            size: 255
          }
        }
      }
    }
  }
  attr {
    key: "dtype"
    value {
      type: DT_FLOAT
    }
  }
  attr {
    key: "seed"
    value {
      i: 0
    }
  }
  attr {
    key: "seed2"
    value {
      i: 0
    }
  }
}
node {
  name: "global/_fully_connected_Layer_2/random_uniform/sub"
  op: "Sub"
  input: "global/_fully_connected_Layer_2/random_uniform/max"
  input: "global/_fully_connected_Layer_2/random_uniform/min"
  device: "/job:thread/task:0/device:CPU:0"
  attr {
    key: "T"
    value {
      type: DT_FLOAT
    }
  }
  attr {
    key: "_output_shapes"
    value {
      list {
        shape {
        }
      }
    }
  }
}
node {
  name: "global/_fully_connected_Layer_2/random_uniform/mul"
  op: "Mul"
  input: "global/_fully_connected_Layer_2/random_uniform/RandomUniform"
  input: "global/_fully_connected_Layer_2/random_uniform/sub"
  device: "/job:thread/task:0/device:CPU:0"
  attr {
    key: "T"
    value {
      type: DT_FLOAT
    }
  }
  attr {
    key: "_output_shapes"
    value {
      list {
        shape {
          dim {
            size: 255
          }
          dim {
            size: 255
          }
        }
      }
    }
  }
}
node {
  name: "global/_fully_connected_Layer_2/random_uniform"
  op: "Add"
  input: "global/_fully_connected_Layer_2/random_uniform/mul"
  input: "global/_fully_connected_Layer_2/random_uniform/min"
  device: "/job:thread/task:0/device:CPU:0"
  attr {
    key: "T"
    value {
      type: DT_FLOAT
    }
  }
  attr {
    key: "_output_shapes"
    value {
      list {
        shape {
          dim {
            size: 255
          }
          dim {
            size: 255
          }
        }
      }
    }
  }
}
node {
  name: "global/_fully_connected_Layer_2/Weights"
  op: "VariableV2"
  device: "/job:master/task:0"
  attr {
    key: "_output_shapes"
    value {
      list {
        shape {
          dim {
            size: 255
          }
          dim {
            size: 255
          }
        }
      }
    }
  }
  attr {
    key: "container"
    value {
      s: ""
    }
  }
  attr {
    key: "dtype"
    value {
      type: DT_FLOAT
    }
  }
  attr {
    key: "shape"
    value {
      shape {
        dim {
          size: 255
        }
        dim {
          size: 255
        }
      }
    }
  }
  attr {
    key: "shared_name"
    value {
      s: ""
    }
  }
}
node {
  name: "global/_fully_connected_Layer_2/Weights/Assign"
  op: "Assign"
  input: "global/_fully_connected_Layer_2/Weights"
  input: "global/_fully_connected_Layer_2/random_uniform"
  device: "/job:master/task:0"
  attr {
    key: "T"
    value {
      type: DT_FLOAT
    }
  }
  attr {
    key: "_class"
    value {
      list {
        s: "loc:@global/_fully_connected_Layer_2/Weights"
      }
    }
  }
  attr {
    key: "_output_shapes"
    value {
      list {
        shape {
          dim {
            size: 255
          }
          dim {
            size: 255
          }
        }
      }
    }
  }
  attr {
    key: "use_locking"
    value {
      b: true
    }
  }
  attr {
    key: "validate_shape"
    value {
      b: true
    }
  }
}
node {
  name: "global/_fully_connected_Layer_2/Weights/read"
  op: "Identity"
  input: "global/_fully_connected_Layer_2/Weights"
  device: "/job:master/task:0"
  attr {
    key: "T"
    value {
      type: DT_FLOAT
    }
  }
  attr {
    key: "_class"
    value {
      list {
        s: "loc:@global/_fully_connected_Layer_2/Weights"
      }
    }
  }
  attr {
    key: "_output_shapes"
    value {
      list {
        shape {
          dim {
            size: 255
          }
          dim {
            size: 255
          }
        }
      }
    }
  }
}
node {
  name: "global/_fully_connected_Layer_2/Const"
  op: "Const"
  device: "/job:thread/task:0/device:CPU:0"
  attr {
    key: "_output_shapes"
    value {
      list {
        shape {
          dim {
            size: 255
          }
        }
      }
    }
  }
  attr {
    key: "dtype"
    value {
      type: DT_FLOAT
    }
  }
  attr {
    key: "value"
    value {
      tensor {
        dtype: DT_FLOAT
        tensor_shape {
          dim {
            size: 255
          }
        }
        float_val: 0.0
      }
    }
  }
}
node {
  name: "global/_fully_connected_Layer_2/Bias"
  op: "VariableV2"
  device: "/job:master/task:0"
  attr {
    key: "_output_shapes"
    value {
      list {
        shape {
          dim {
            size: 255
          }
        }
      }
    }
  }
  attr {
    key: "container"
    value {
      s: ""
    }
  }
  attr {
    key: "dtype"
    value {
      type: DT_FLOAT
    }
  }
  attr {
    key: "shape"
    value {
      shape {
        dim {
          size: 255
        }
      }
    }
  }
  attr {
    key: "shared_name"
    value {
      s: ""
    }
  }
}
node {
  name: "global/_fully_connected_Layer_2/Bias/Assign"
  op: "Assign"
  input: "global/_fully_connected_Layer_2/Bias"
  input: "global/_fully_connected_Layer_2/Const"
  device: "/job:master/task:0"
  attr {
    key: "T"
    value {
      type: DT_FLOAT
    }
  }
  attr {
    key: "_class"
    value {
      list {
        s: "loc:@global/_fully_connected_Layer_2/Bias"
      }
    }
  }
  attr {
    key: "_output_shapes"
    value {
      list {
        shape {
          dim {
            size: 255
          }
        }
      }
    }
  }
  attr {
    key: "use_locking"
    value {
      b: true
    }
  }
  attr {
    key: "validate_shape"
    value {
      b: true
    }
  }
}
node {
  name: "global/_fully_connected_Layer_2/Bias/read"
  op: "Identity"
  input: "global/_fully_connected_Layer_2/Bias"
  device: "/job:master/task:0"
  attr {
    key: "T"
    value {
      type: DT_FLOAT
    }
  }
  attr {
    key: "_class"
    value {
      list {
        s: "loc:@global/_fully_connected_Layer_2/Bias"
      }
    }
  }
  attr {
    key: "_output_shapes"
    value {
      list {
        shape {
          dim {
            size: 255
          }
        }
      }
    }
  }
}
node {
  name: "global/_fully_connected_Layer_2/MatMul"
  op: "MatMul"
  input: "global/_fully_connected_Layer_1/Relu"
  input: "global/_fully_connected_Layer_2/Weights/read"
  device: "/job:thread/task:0/device:CPU:0"
  attr {
    key: "T"
    value {
      type: DT_FLOAT
    }
  }
  attr {
    key: "_output_shapes"
    value {
      list {
        shape {
          dim {
            size: 1
          }
          dim {
            size: 255
          }
        }
      }
    }
  }
  attr {
    key: "transpose_a"
    value {
      b: false
    }
  }
  attr {
    key: "transpose_b"
    value {
      b: false
    }
  }
}
node {
  name: "global/_fully_connected_Layer_2/add"
  op: "AddV2"
  input: "global/_fully_connected_Layer_2/MatMul"
  input: "global/_fully_connected_Layer_2/Bias/read"
  device: "/job:thread/task:0/device:CPU:0"
  attr {
    key: "T"
    value {
      type: DT_FLOAT
    }
  }
  attr {
    key: "_output_shapes"
    value {
      list {
        shape {
          dim {
            size: 1
          }
          dim {
            size: 255
          }
        }
      }
    }
  }
}
node {
  name: "global/_fully_connected_Layer_2/Relu"
  op: "Relu"
  input: "global/_fully_connected_Layer_2/add"
  device: "/job:thread/task:0/device:CPU:0"
  attr {
    key: "T"
    value {
      type: DT_FLOAT
    }
  }
  attr {
    key: "_output_shapes"
    value {
      list {
        shape {
          dim {
            size: 1
          }
          dim {
            size: 255
          }
        }
      }
    }
  }
}
node {
  name: "global/_fully_connected_Layer_3/random_uniform/shape"
  op: "Const"
  device: "/job:thread/task:0/device:CPU:0"
  attr {
    key: "_output_shapes"
    value {
      list {
        shape {
          dim {
            size: 2
          }
        }
      }
    }
  }
  attr {
    key: "dtype"
    value {
      type: DT_INT32
    }
  }
  attr {
    key: "value"
    value {
      tensor {
        dtype: DT_INT32
        tensor_shape {
          dim {
            size: 2
          }
        }
        tensor_content: "\377\000\000\000\377\000\000\000"
      }
    }
  }
}
node {
  name: "global/_fully_connected_Layer_3/random_uniform/min"
  op: "Const"
  device: "/job:thread/task:0/device:CPU:0"
  attr {
    key: "_output_shapes"
    value {
      list {
        shape {
        }
      }
    }
  }
  attr {
    key: "dtype"
    value {
      type: DT_FLOAT
    }
  }
  attr {
    key: "value"
    value {
      tensor {
        dtype: DT_FLOAT
        tensor_shape {
        }
        float_val: -0.10846523195505142
      }
    }
  }
}
node {
  name: "global/_fully_connected_Layer_3/random_uniform/max"
  op: "Const"
  device: "/job:thread/task:0/device:CPU:0"
  attr {
    key: "_output_shapes"
    value {
      list {
        shape {
        }
      }
    }
  }
  attr {
    key: "dtype"
    value {
      type: DT_FLOAT
    }
  }
  attr {
    key: "value"
    value {
      tensor {
        dtype: DT_FLOAT
        tensor_shape {
        }
        float_val: 0.10846523195505142
      }
    }
  }
}
node {
  name: "global/_fully_connected_Layer_3/random_uniform/RandomUniform"
  op: "RandomUniform"
  input: "global/_fully_connected_Layer_3/random_uniform/shape"
  device: "/job:thread/task:0/device:CPU:0"
  attr {
    key: "T"
    value {
      type: DT_INT32
    }
  }
  attr {
    key: "_output_shapes"
    value {
      list {
        shape {
          dim {
            size: 255
          }
          dim {
            size: 255
          }
        }
      }
    }
  }
  attr {
    key: "dtype"
    value {
      type: DT_FLOAT
    }
  }
  attr {
    key: "seed"
    value {
      i: 0
    }
  }
  attr {
    key: "seed2"
    value {
      i: 0
    }
  }
}
node {
  name: "global/_fully_connected_Layer_3/random_uniform/sub"
  op: "Sub"
  input: "global/_fully_connected_Layer_3/random_uniform/max"
  input: "global/_fully_connected_Layer_3/random_uniform/min"
  device: "/job:thread/task:0/device:CPU:0"
  attr {
    key: "T"
    value {
      type: DT_FLOAT
    }
  }
  attr {
    key: "_output_shapes"
    value {
      list {
        shape {
        }
      }
    }
  }
}
node {
  name: "global/_fully_connected_Layer_3/random_uniform/mul"
  op: "Mul"
  input: "global/_fully_connected_Layer_3/random_uniform/RandomUniform"
  input: "global/_fully_connected_Layer_3/random_uniform/sub"
  device: "/job:thread/task:0/device:CPU:0"
  attr {
    key: "T"
    value {
      type: DT_FLOAT
    }
  }
  attr {
    key: "_output_shapes"
    value {
      list {
        shape {
          dim {
            size: 255
          }
          dim {
            size: 255
          }
        }
      }
    }
  }
}
node {
  name: "global/_fully_connected_Layer_3/random_uniform"
  op: "Add"
  input: "global/_fully_connected_Layer_3/random_uniform/mul"
  input: "global/_fully_connected_Layer_3/random_uniform/min"
  device: "/job:thread/task:0/device:CPU:0"
  attr {
    key: "T"
    value {
      type: DT_FLOAT
    }
  }
  attr {
    key: "_output_shapes"
    value {
      list {
        shape {
          dim {
            size: 255
          }
          dim {
            size: 255
          }
        }
      }
    }
  }
}
node {
  name: "global/_fully_connected_Layer_3/Weights"
  op: "VariableV2"
  device: "/job:master/task:0"
  attr {
    key: "_output_shapes"
    value {
      list {
        shape {
          dim {
            size: 255
          }
          dim {
            size: 255
          }
        }
      }
    }
  }
  attr {
    key: "container"
    value {
      s: ""
    }
  }
  attr {
    key: "dtype"
    value {
      type: DT_FLOAT
    }
  }
  attr {
    key: "shape"
    value {
      shape {
        dim {
          size: 255
        }
        dim {
          size: 255
        }
      }
    }
  }
  attr {
    key: "shared_name"
    value {
      s: ""
    }
  }
}
node {
  name: "global/_fully_connected_Layer_3/Weights/Assign"
  op: "Assign"
  input: "global/_fully_connected_Layer_3/Weights"
  input: "global/_fully_connected_Layer_3/random_uniform"
  device: "/job:master/task:0"
  attr {
    key: "T"
    value {
      type: DT_FLOAT
    }
  }
  attr {
    key: "_class"
    value {
      list {
        s: "loc:@global/_fully_connected_Layer_3/Weights"
      }
    }
  }
  attr {
    key: "_output_shapes"
    value {
      list {
        shape {
          dim {
            size: 255
          }
          dim {
            size: 255
          }
        }
      }
    }
  }
  attr {
    key: "use_locking"
    value {
      b: true
    }
  }
  attr {
    key: "validate_shape"
    value {
      b: true
    }
  }
}
node {
  name: "global/_fully_connected_Layer_3/Weights/read"
  op: "Identity"
  input: "global/_fully_connected_Layer_3/Weights"
  device: "/job:master/task:0"
  attr {
    key: "T"
    value {
      type: DT_FLOAT
    }
  }
  attr {
    key: "_class"
    value {
      list {
        s: "loc:@global/_fully_connected_Layer_3/Weights"
      }
    }
  }
  attr {
    key: "_output_shapes"
    value {
      list {
        shape {
          dim {
            size: 255
          }
          dim {
            size: 255
          }
        }
      }
    }
  }
}
node {
  name: "global/_fully_connected_Layer_3/Const"
  op: "Const"
  device: "/job:thread/task:0/device:CPU:0"
  attr {
    key: "_output_shapes"
    value {
      list {
        shape {
          dim {
            size: 255
          }
        }
      }
    }
  }
  attr {
    key: "dtype"
    value {
      type: DT_FLOAT
    }
  }
  attr {
    key: "value"
    value {
      tensor {
        dtype: DT_FLOAT
        tensor_shape {
          dim {
            size: 255
          }
        }
        float_val: 0.0
      }
    }
  }
}
node {
  name: "global/_fully_connected_Layer_3/Bias"
  op: "VariableV2"
  device: "/job:master/task:0"
  attr {
    key: "_output_shapes"
    value {
      list {
        shape {
          dim {
            size: 255
          }
        }
      }
    }
  }
  attr {
    key: "container"
    value {
      s: ""
    }
  }
  attr {
    key: "dtype"
    value {
      type: DT_FLOAT
    }
  }
  attr {
    key: "shape"
    value {
      shape {
        dim {
          size: 255
        }
      }
    }
  }
  attr {
    key: "shared_name"
    value {
      s: ""
    }
  }
}
node {
  name: "global/_fully_connected_Layer_3/Bias/Assign"
  op: "Assign"
  input: "global/_fully_connected_Layer_3/Bias"
  input: "global/_fully_connected_Layer_3/Const"
  device: "/job:master/task:0"
  attr {
    key: "T"
    value {
      type: DT_FLOAT
    }
  }
  attr {
    key: "_class"
    value {
      list {
        s: "loc:@global/_fully_connected_Layer_3/Bias"
      }
    }
  }
  attr {
    key: "_output_shapes"
    value {
      list {
        shape {
          dim {
            size: 255
          }
        }
      }
    }
  }
  attr {
    key: "use_locking"
    value {
      b: true
    }
  }
  attr {
    key: "validate_shape"
    value {
      b: true
    }
  }
}
node {
  name: "global/_fully_connected_Layer_3/Bias/read"
  op: "Identity"
  input: "global/_fully_connected_Layer_3/Bias"
  device: "/job:master/task:0"
  attr {
    key: "T"
    value {
      type: DT_FLOAT
    }
  }
  attr {
    key: "_class"
    value {
      list {
        s: "loc:@global/_fully_connected_Layer_3/Bias"
      }
    }
  }
  attr {
    key: "_output_shapes"
    value {
      list {
        shape {
          dim {
            size: 255
          }
        }
      }
    }
  }
}
node {
  name: "global/_fully_connected_Layer_3/MatMul"
  op: "MatMul"
  input: "global/_fully_connected_Layer_2/Relu"
  input: "global/_fully_connected_Layer_3/Weights/read"
  device: "/job:thread/task:0/device:CPU:0"
  attr {
    key: "T"
    value {
      type: DT_FLOAT
    }
  }
  attr {
    key: "_output_shapes"
    value {
      list {
        shape {
          dim {
            size: 1
          }
          dim {
            size: 255
          }
        }
      }
    }
  }
  attr {
    key: "transpose_a"
    value {
      b: false
    }
  }
  attr {
    key: "transpose_b"
    value {
      b: false
    }
  }
}
node {
  name: "global/_fully_connected_Layer_3/add"
  op: "AddV2"
  input: "global/_fully_connected_Layer_3/MatMul"
  input: "global/_fully_connected_Layer_3/Bias/read"
  device: "/job:thread/task:0/device:CPU:0"
  attr {
    key: "T"
    value {
      type: DT_FLOAT
    }
  }
  attr {
    key: "_output_shapes"
    value {
      list {
        shape {
          dim {
            size: 1
          }
          dim {
            size: 255
          }
        }
      }
    }
  }
}
node {
  name: "global/_fully_connected_Layer_3/Relu"
  op: "Relu"
  input: "global/_fully_connected_Layer_3/add"
  device: "/job:thread/task:0/device:CPU:0"
  attr {
    key: "T"
    value {
      type: DT_FLOAT
    }
  }
  attr {
    key: "_output_shapes"
    value {
      list {
        shape {
          dim {
            size: 1
          }
          dim {
            size: 255
          }
        }
      }
    }
  }
}
node {
  name: "global/_fully_connected_Layer_4/random_uniform/shape"
  op: "Const"
  device: "/job:thread/task:0/device:CPU:0"
  attr {
    key: "_output_shapes"
    value {
      list {
        shape {
          dim {
            size: 2
          }
        }
      }
    }
  }
  attr {
    key: "dtype"
    value {
      type: DT_INT32
    }
  }
  attr {
    key: "value"
    value {
      tensor {
        dtype: DT_INT32
        tensor_shape {
          dim {
            size: 2
          }
        }
        tensor_content: "\377\000\000\000\377\000\000\000"
      }
    }
  }
}
node {
  name: "global/_fully_connected_Layer_4/random_uniform/min"
  op: "Const"
  device: "/job:thread/task:0/device:CPU:0"
  attr {
    key: "_output_shapes"
    value {
      list {
        shape {
        }
      }
    }
  }
  attr {
    key: "dtype"
    value {
      type: DT_FLOAT
    }
  }
  attr {
    key: "value"
    value {
      tensor {
        dtype: DT_FLOAT
        tensor_shape {
        }
        float_val: -0.10846523195505142
      }
    }
  }
}
node {
  name: "global/_fully_connected_Layer_4/random_uniform/max"
  op: "Const"
  device: "/job:thread/task:0/device:CPU:0"
  attr {
    key: "_output_shapes"
    value {
      list {
        shape {
        }
      }
    }
  }
  attr {
    key: "dtype"
    value {
      type: DT_FLOAT
    }
  }
  attr {
    key: "value"
    value {
      tensor {
        dtype: DT_FLOAT
        tensor_shape {
        }
        float_val: 0.10846523195505142
      }
    }
  }
}
node {
  name: "global/_fully_connected_Layer_4/random_uniform/RandomUniform"
  op: "RandomUniform"
  input: "global/_fully_connected_Layer_4/random_uniform/shape"
  device: "/job:thread/task:0/device:CPU:0"
  attr {
    key: "T"
    value {
      type: DT_INT32
    }
  }
  attr {
    key: "_output_shapes"
    value {
      list {
        shape {
          dim {
            size: 255
          }
          dim {
            size: 255
          }
        }
      }
    }
  }
  attr {
    key: "dtype"
    value {
      type: DT_FLOAT
    }
  }
  attr {
    key: "seed"
    value {
      i: 0
    }
  }
  attr {
    key: "seed2"
    value {
      i: 0
    }
  }
}
node {
  name: "global/_fully_connected_Layer_4/random_uniform/sub"
  op: "Sub"
  input: "global/_fully_connected_Layer_4/random_uniform/max"
  input: "global/_fully_connected_Layer_4/random_uniform/min"
  device: "/job:thread/task:0/device:CPU:0"
  attr {
    key: "T"
    value {
      type: DT_FLOAT
    }
  }
  attr {
    key: "_output_shapes"
    value {
      list {
        shape {
        }
      }
    }
  }
}
node {
  name: "global/_fully_connected_Layer_4/random_uniform/mul"
  op: "Mul"
  input: "global/_fully_connected_Layer_4/random_uniform/RandomUniform"
  input: "global/_fully_connected_Layer_4/random_uniform/sub"
  device: "/job:thread/task:0/device:CPU:0"
  attr {
    key: "T"
    value {
      type: DT_FLOAT
    }
  }
  attr {
    key: "_output_shapes"
    value {
      list {
        shape {
          dim {
            size: 255
          }
          dim {
            size: 255
          }
        }
      }
    }
  }
}
node {
  name: "global/_fully_connected_Layer_4/random_uniform"
  op: "Add"
  input: "global/_fully_connected_Layer_4/random_uniform/mul"
  input: "global/_fully_connected_Layer_4/random_uniform/min"
  device: "/job:thread/task:0/device:CPU:0"
  attr {
    key: "T"
    value {
      type: DT_FLOAT
    }
  }
  attr {
    key: "_output_shapes"
    value {
      list {
        shape {
          dim {
            size: 255
          }
          dim {
            size: 255
          }
        }
      }
    }
  }
}
node {
  name: "global/_fully_connected_Layer_4/Weights"
  op: "VariableV2"
  device: "/job:master/task:0"
  attr {
    key: "_output_shapes"
    value {
      list {
        shape {
          dim {
            size: 255
          }
          dim {
            size: 255
          }
        }
      }
    }
  }
  attr {
    key: "container"
    value {
      s: ""
    }
  }
  attr {
    key: "dtype"
    value {
      type: DT_FLOAT
    }
  }
  attr {
    key: "shape"
    value {
      shape {
        dim {
          size: 255
        }
        dim {
          size: 255
        }
      }
    }
  }
  attr {
    key: "shared_name"
    value {
      s: ""
    }
  }
}
node {
  name: "global/_fully_connected_Layer_4/Weights/Assign"
  op: "Assign"
  input: "global/_fully_connected_Layer_4/Weights"
  input: "global/_fully_connected_Layer_4/random_uniform"
  device: "/job:master/task:0"
  attr {
    key: "T"
    value {
      type: DT_FLOAT
    }
  }
  attr {
    key: "_class"
    value {
      list {
        s: "loc:@global/_fully_connected_Layer_4/Weights"
      }
    }
  }
  attr {
    key: "_output_shapes"
    value {
      list {
        shape {
          dim {
            size: 255
          }
          dim {
            size: 255
          }
        }
      }
    }
  }
  attr {
    key: "use_locking"
    value {
      b: true
    }
  }
  attr {
    key: "validate_shape"
    value {
      b: true
    }
  }
}
node {
  name: "global/_fully_connected_Layer_4/Weights/read"
  op: "Identity"
  input: "global/_fully_connected_Layer_4/Weights"
  device: "/job:master/task:0"
  attr {
    key: "T"
    value {
      type: DT_FLOAT
    }
  }
  attr {
    key: "_class"
    value {
      list {
        s: "loc:@global/_fully_connected_Layer_4/Weights"
      }
    }
  }
  attr {
    key: "_output_shapes"
    value {
      list {
        shape {
          dim {
            size: 255
          }
          dim {
            size: 255
          }
        }
      }
    }
  }
}
node {
  name: "global/_fully_connected_Layer_4/Const"
  op: "Const"
  device: "/job:thread/task:0/device:CPU:0"
  attr {
    key: "_output_shapes"
    value {
      list {
        shape {
          dim {
            size: 255
          }
        }
      }
    }
  }
  attr {
    key: "dtype"
    value {
      type: DT_FLOAT
    }
  }
  attr {
    key: "value"
    value {
      tensor {
        dtype: DT_FLOAT
        tensor_shape {
          dim {
            size: 255
          }
        }
        float_val: 0.0
      }
    }
  }
}
node {
  name: "global/_fully_connected_Layer_4/Bias"
  op: "VariableV2"
  device: "/job:master/task:0"
  attr {
    key: "_output_shapes"
    value {
      list {
        shape {
          dim {
            size: 255
          }
        }
      }
    }
  }
  attr {
    key: "container"
    value {
      s: ""
    }
  }
  attr {
    key: "dtype"
    value {
      type: DT_FLOAT
    }
  }
  attr {
    key: "shape"
    value {
      shape {
        dim {
          size: 255
        }
      }
    }
  }
  attr {
    key: "shared_name"
    value {
      s: ""
    }
  }
}
node {
  name: "global/_fully_connected_Layer_4/Bias/Assign"
  op: "Assign"
  input: "global/_fully_connected_Layer_4/Bias"
  input: "global/_fully_connected_Layer_4/Const"
  device: "/job:master/task:0"
  attr {
    key: "T"
    value {
      type: DT_FLOAT
    }
  }
  attr {
    key: "_class"
    value {
      list {
        s: "loc:@global/_fully_connected_Layer_4/Bias"
      }
    }
  }
  attr {
    key: "_output_shapes"
    value {
      list {
        shape {
          dim {
            size: 255
          }
        }
      }
    }
  }
  attr {
    key: "use_locking"
    value {
      b: true
    }
  }
  attr {
    key: "validate_shape"
    value {
      b: true
    }
  }
}
node {
  name: "global/_fully_connected_Layer_4/Bias/read"
  op: "Identity"
  input: "global/_fully_connected_Layer_4/Bias"
  device: "/job:master/task:0"
  attr {
    key: "T"
    value {
      type: DT_FLOAT
    }
  }
  attr {
    key: "_class"
    value {
      list {
        s: "loc:@global/_fully_connected_Layer_4/Bias"
      }
    }
  }
  attr {
    key: "_output_shapes"
    value {
      list {
        shape {
          dim {
            size: 255
          }
        }
      }
    }
  }
}
node {
  name: "global/_fully_connected_Layer_4/MatMul"
  op: "MatMul"
  input: "global/_fully_connected_Layer_3/Relu"
  input: "global/_fully_connected_Layer_4/Weights/read"
  device: "/job:thread/task:0/device:CPU:0"
  attr {
    key: "T"
    value {
      type: DT_FLOAT
    }
  }
  attr {
    key: "_output_shapes"
    value {
      list {
        shape {
          dim {
            size: 1
          }
          dim {
            size: 255
          }
        }
      }
    }
  }
  attr {
    key: "transpose_a"
    value {
      b: false
    }
  }
  attr {
    key: "transpose_b"
    value {
      b: false
    }
  }
}
node {
  name: "global/_fully_connected_Layer_4/add"
  op: "AddV2"
  input: "global/_fully_connected_Layer_4/MatMul"
  input: "global/_fully_connected_Layer_4/Bias/read"
  device: "/job:thread/task:0/device:CPU:0"
  attr {
    key: "T"
    value {
      type: DT_FLOAT
    }
  }
  attr {
    key: "_output_shapes"
    value {
      list {
        shape {
          dim {
            size: 1
          }
          dim {
            size: 255
          }
        }
      }
    }
  }
}
node {
  name: "global/_fully_connected_Layer_4/Relu"
  op: "Relu"
  input: "global/_fully_connected_Layer_4/add"
  device: "/job:thread/task:0/device:CPU:0"
  attr {
    key: "T"
    value {
      type: DT_FLOAT
    }
  }
  attr {
    key: "_output_shapes"
    value {
      list {
        shape {
          dim {
            size: 1
          }
          dim {
            size: 255
          }
        }
      }
    }
  }
}
node {
  name: "global/Reshape/shape"
  op: "Const"
  device: "/job:thread/task:0/device:CPU:0"
  attr {
    key: "_output_shapes"
    value {
      list {
        shape {
          dim {
            size: 2
          }
        }
      }
    }
  }
  attr {
    key: "dtype"
    value {
      type: DT_INT32
    }
  }
  attr {
    key: "value"
    value {
      tensor {
        dtype: DT_INT32
        tensor_shape {
          dim {
            size: 2
          }
        }
        tensor_content: "\377\377\377\377\377\000\000\000"
      }
    }
  }
}
node {
  name: "global/Reshape"
  op: "Reshape"
  input: "global/_fully_connected_Layer_4/Relu"
  input: "global/Reshape/shape"
  device: "/job:thread/task:0/device:CPU:0"
  attr {
    key: "T"
    value {
      type: DT_FLOAT
    }
  }
  attr {
    key: "Tshape"
    value {
      type: DT_INT32
    }
  }
  attr {
    key: "_output_shapes"
    value {
      list {
        shape {
          dim {
            size: 1
          }
          dim {
            size: 255
          }
        }
      }
    }
  }
}
node {
  name: "global/LSTM_Layer/Placeholder"
  op: "Placeholder"
  device: "/job:thread/task:0/device:CPU:0"
  attr {
    key: "_output_shapes"
    value {
      list {
        shape {
          dim {
            size: 1
          }
          dim {
            size: 256
          }
        }
      }
    }
  }
  attr {
    key: "dtype"
    value {
      type: DT_FLOAT
    }
  }
  attr {
    key: "shape"
    value {
      shape {
        dim {
          size: 1
        }
        dim {
          size: 256
        }
      }
    }
  }
}
node {
  name: "global/LSTM_Layer/Placeholder_1"
  op: "Placeholder"
  device: "/job:thread/task:0/device:CPU:0"
  attr {
    key: "_output_shapes"
    value {
      list {
        shape {
          dim {
            size: 1
          }
          dim {
            size: 256
          }
        }
      }
    }
  }
  attr {
    key: "dtype"
    value {
      type: DT_FLOAT
    }
  }
  attr {
    key: "shape"
    value {
      shape {
        dim {
          size: 1
        }
        dim {
          size: 256
        }
      }
    }
  }
}
node {
  name: "global/LSTM_Layer/Shape"
  op: "Const"
  device: "/job:thread/task:0/device:CPU:0"
  attr {
    key: "_output_shapes"
    value {
      list {
        shape {
          dim {
            size: 2
          }
        }
      }
    }
  }
  attr {
    key: "dtype"
    value {
      type: DT_INT32
    }
  }
  attr {
    key: "value"
    value {
      tensor {
        dtype: DT_INT32
        tensor_shape {
          dim {
            size: 2
          }
        }
        tensor_content: "\001\000\000\000\377\000\000\000"
      }
    }
  }
}
node {
  name: "global/LSTM_Layer/strided_slice/stack"
  op: "Const"
  device: "/job:thread/task:0/device:CPU:0"
  attr {
    key: "_output_shapes"
    value {
      list {
        shape {
          dim {
            size: 1
          }
        }
      }
    }
  }
  attr {
    key: "dtype"
    value {
      type: DT_INT32
    }
  }
  attr {
    key: "value"
    value {
      tensor {
        dtype: DT_INT32
        tensor_shape {
          dim {
            size: 1
          }
        }
        int_val: 0
      }
    }
  }
}
node {
  name: "global/LSTM_Layer/strided_slice/stack_1"
  op: "Const"
  device: "/job:thread/task:0/device:CPU:0"
  attr {
    key: "_output_shapes"
    value {
      list {
        shape {
          dim {
            size: 1
          }
        }
      }
    }
  }
  attr {
    key: "dtype"
    value {
      type: DT_INT32
    }
  }
  attr {
    key: "value"
    value {
      tensor {
        dtype: DT_INT32
        tensor_shape {
          dim {
            size: 1
          }
        }
        int_val: 1
      }
    }
  }
}
node {
  name: "global/LSTM_Layer/strided_slice/stack_2"
  op: "Const"
  device: "/job:thread/task:0/device:CPU:0"
  attr {
    key: "_output_shapes"
    value {
      list {
        shape {
          dim {
            size: 1
          }
        }
      }
    }
  }
  attr {
    key: "dtype"
    value {
      type: DT_INT32
    }
  }
  attr {
    key: "value"
    value {
      tensor {
        dtype: DT_INT32
        tensor_shape {
          dim {
            size: 1
          }
        }
        int_val: 1
      }
    }
  }
}
node {
  name: "global/LSTM_Layer/strided_slice"
  op: "StridedSlice"
  input: "global/LSTM_Layer/Shape"
  input: "global/LSTM_Layer/strided_slice/stack"
  input: "global/LSTM_Layer/strided_slice/stack_1"
  input: "global/LSTM_Layer/strided_slice/stack_2"
  device: "/job:thread/task:0/device:CPU:0"
  attr {
    key: "Index"
    value {
      type: DT_INT32
    }
  }
  attr {
    key: "T"
    value {
      type: DT_INT32
    }
  }
  attr {
    key: "_output_shapes"
    value {
      list {
        shape {
          dim {
            size: 1
          }
        }
      }
    }
  }
  attr {
    key: "begin_mask"
    value {
      i: 1
    }
  }
  attr {
    key: "ellipsis_mask"
    value {
      i: 0
    }
  }
  attr {
    key: "end_mask"
    value {
      i: 0
    }
  }
  attr {
    key: "new_axis_mask"
    value {
      i: 0
    }
  }
  attr {
    key: "shrink_axis_mask"
    value {
      i: 0
    }
  }
}
node {
  name: "global/LSTM_Layer/ExpandDims/dim"
  op: "Const"
  device: "/job:thread/task:0/device:CPU:0"
  attr {
    key: "_output_shapes"
    value {
      list {
        shape {
          dim {
            size: 1
          }
        }
      }
    }
  }
  attr {
    key: "dtype"
    value {
      type: DT_INT32
    }
  }
  attr {
    key: "value"
    value {
      tensor {
        dtype: DT_INT32
        tensor_shape {
          dim {
            size: 1
          }
        }
        int_val: 0
      }
    }
  }
}
node {
  name: "global/LSTM_Layer/ExpandDims"
  op: "ExpandDims"
  input: "global/Reshape"
  input: "global/LSTM_Layer/ExpandDims/dim"
  device: "/job:thread/task:0/device:CPU:0"
  attr {
    key: "T"
    value {
      type: DT_FLOAT
    }
  }
  attr {
    key: "Tdim"
    value {
      type: DT_INT32
    }
  }
  attr {
    key: "_output_shapes"
    value {
      list {
        shape {
          dim {
            size: 1
          }
          dim {
            size: 1
          }
          dim {
            size: 255
          }
        }
      }
    }
  }
}
node {
  name: "global/LSTM_Layer/rnn/Rank"
  op: "Const"
  device: "/job:thread/task:0/device:CPU:0"
  attr {
    key: "_output_shapes"
    value {
      list {
        shape {
        }
      }
    }
  }
  attr {
    key: "dtype"
    value {
      type: DT_INT32
    }
  }
  attr {
    key: "value"
    value {
      tensor {
        dtype: DT_INT32
        tensor_shape {
        }
        int_val: 3
      }
    }
  }
}
node {
  name: "global/LSTM_Layer/rnn/range/start"
  op: "Const"
  device: "/job:thread/task:0/device:CPU:0"
  attr {
    key: "_output_shapes"
    value {
      list {
        shape {
        }
      }
    }
  }
  attr {
    key: "dtype"
    value {
      type: DT_INT32
    }
  }
  attr {
    key: "value"
    value {
      tensor {
        dtype: DT_INT32
        tensor_shape {
        }
        int_val: 2
      }
    }
  }
}
node {
  name: "global/LSTM_Layer/rnn/range/delta"
  op: "Const"
  device: "/job:thread/task:0/device:CPU:0"
  attr {
    key: "_output_shapes"
    value {
      list {
        shape {
        }
      }
    }
  }
  attr {
    key: "dtype"
    value {
      type: DT_INT32
    }
  }
  attr {
    key: "value"
    value {
      tensor {
        dtype: DT_INT32
        tensor_shape {
        }
        int_val: 1
      }
    }
  }
}
node {
  name: "global/LSTM_Layer/rnn/range"
  op: "Range"
  input: "global/LSTM_Layer/rnn/range/start"
  input: "global/LSTM_Layer/rnn/Rank"
  input: "global/LSTM_Layer/rnn/range/delta"
  device: "/job:thread/task:0/device:CPU:0"
  attr {
    key: "Tidx"
    value {
      type: DT_INT32
    }
  }
  attr {
    key: "_output_shapes"
    value {
      list {
        shape {
          dim {
            size: 1
          }
        }
      }
    }
  }
}
node {
  name: "global/LSTM_Layer/rnn/concat/values_0"
  op: "Const"
  device: "/job:thread/task:0/device:CPU:0"
  attr {
    key: "_output_shapes"
    value {
      list {
        shape {
          dim {
            size: 2
          }
        }
      }
    }
  }
  attr {
    key: "dtype"
    value {
      type: DT_INT32
    }
  }
  attr {
    key: "value"
    value {
      tensor {
        dtype: DT_INT32
        tensor_shape {
          dim {
            size: 2
          }
        }
        tensor_content: "\001\000\000\000\000\000\000\000"
      }
    }
  }
}
node {
  name: "global/LSTM_Layer/rnn/concat/axis"
  op: "Const"
  device: "/job:thread/task:0/device:CPU:0"
  attr {
    key: "_output_shapes"
    value {
      list {
        shape {
        }
      }
    }
  }
  attr {
    key: "dtype"
    value {
      type: DT_INT32
    }
  }
  attr {
    key: "value"
    value {
      tensor {
        dtype: DT_INT32
        tensor_shape {
        }
        int_val: 0
      }
    }
  }
}
node {
  name: "global/LSTM_Layer/rnn/concat"
  op: "ConcatV2"
  input: "global/LSTM_Layer/rnn/concat/values_0"
  input: "global/LSTM_Layer/rnn/range"
  input: "global/LSTM_Layer/rnn/concat/axis"
  device: "/job:thread/task:0/device:CPU:0"
  attr {
    key: "N"
    value {
      i: 2
    }
  }
  attr {
    key: "T"
    value {
      type: DT_INT32
    }
  }
  attr {
    key: "Tidx"
    value {
      type: DT_INT32
    }
  }
  attr {
    key: "_output_shapes"
    value {
      list {
        shape {
          dim {
            size: 3
          }
        }
      }
    }
  }
}
node {
  name: "global/LSTM_Layer/rnn/transpose"
  op: "Transpose"
  input: "global/LSTM_Layer/ExpandDims"
  input: "global/LSTM_Layer/rnn/concat"
  device: "/job:thread/task:0/device:CPU:0"
  attr {
    key: "T"
    value {
      type: DT_FLOAT
    }
  }
  attr {
    key: "Tperm"
    value {
      type: DT_INT32
    }
  }
  attr {
    key: "_output_shapes"
    value {
      list {
        shape {
          dim {
            size: 1
          }
          dim {
            size: 1
          }
          dim {
            size: 255
          }
        }
      }
    }
  }
}
node {
  name: "global/LSTM_Layer/rnn/sequence_length"
  op: "Identity"
  input: "global/LSTM_Layer/strided_slice"
  device: "/job:thread/task:0/device:CPU:0"
  attr {
    key: "T"
    value {
      type: DT_INT32
    }
  }
  attr {
    key: "_output_shapes"
    value {
      list {
        shape {
          dim {
            size: 1
          }
        }
      }
    }
  }
}
node {
  name: "global/LSTM_Layer/rnn/Shape"
  op: "Const"
  device: "/job:thread/task:0/device:CPU:0"
  attr {
    key: "_output_shapes"
    value {
      list {
        shape {
          dim {
            size: 1
          }
        }
      }
    }
  }
  attr {
    key: "dtype"
    value {
      type: DT_INT32
    }
  }
  attr {
    key: "value"
    value {
      tensor {
        dtype: DT_INT32
        tensor_shape {
          dim {
            size: 1
          }
        }
        int_val: 1
      }
    }
  }
}
node {
  name: "global/LSTM_Layer/rnn/stack"
  op: "Const"
  device: "/job:thread/task:0/device:CPU:0"
  attr {
    key: "_output_shapes"
    value {
      list {
        shape {
          dim {
            size: 1
          }
        }
      }
    }
  }
  attr {
    key: "dtype"
    value {
      type: DT_INT32
    }
  }
  attr {
    key: "value"
    value {
      tensor {
        dtype: DT_INT32
        tensor_shape {
          dim {
            size: 1
          }
        }
        int_val: 1
      }
    }
  }
}
node {
  name: "global/LSTM_Layer/rnn/Equal"
  op: "Equal"
  input: "global/LSTM_Layer/rnn/Shape"
  input: "global/LSTM_Layer/rnn/stack"
  device: "/job:thread/task:0/device:CPU:0"
  attr {
    key: "T"
    value {
      type: DT_INT32
    }
  }
  attr {
    key: "_output_shapes"
    value {
      list {
        shape {
          dim {
            size: 1
          }
        }
      }
    }
  }
  attr {
    key: "incompatible_shape_error"
    value {
      b: true
    }
  }
}
node {
  name: "global/LSTM_Layer/rnn/Const"
  op: "Const"
  device: "/job:thread/task:0/device:CPU:0"
  attr {
    key: "_output_shapes"
    value {
      list {
        shape {
          dim {
            size: 1
          }
        }
      }
    }
  }
  attr {
    key: "dtype"
    value {
      type: DT_INT32
    }
  }
  attr {
    key: "value"
    value {
      tensor {
        dtype: DT_INT32
        tensor_shape {
          dim {
            size: 1
          }
        }
        int_val: 0
      }
    }
  }
}
node {
  name: "global/LSTM_Layer/rnn/All"
  op: "All"
  input: "global/LSTM_Layer/rnn/Equal"
  input: "global/LSTM_Layer/rnn/Const"
  device: "/job:thread/task:0/device:CPU:0"
  attr {
    key: "Tidx"
    value {
      type: DT_INT32
    }
  }
  attr {
    key: "_output_shapes"
    value {
      list {
        shape {
        }
      }
    }
  }
  attr {
    key: "keep_dims"
    value {
      b: false
    }
  }
}
node {
  name: "global/LSTM_Layer/rnn/Assert/Const"
  op: "Const"
  device: "/job:thread/task:0/device:CPU:0"
  attr {
    key: "_output_shapes"
    value {
      list {
        shape {
        }
      }
    }
  }
  attr {
    key: "dtype"
    value {
      type: DT_STRING
    }
  }
  attr {
    key: "value"
    value {
      tensor {
        dtype: DT_STRING
        tensor_shape {
        }
        string_val: "Expected shape for Tensor global/LSTM_Layer/rnn/sequence_length:0 is "
      }
    }
  }
}
node {
  name: "global/LSTM_Layer/rnn/Assert/Const_1"
  op: "Const"
  device: "/job:thread/task:0/device:CPU:0"
  attr {
    key: "_output_shapes"
    value {
      list {
        shape {
        }
      }
    }
  }
  attr {
    key: "dtype"
    value {
      type: DT_STRING
    }
  }
  attr {
    key: "value"
    value {
      tensor {
        dtype: DT_STRING
        tensor_shape {
        }
        string_val: " but saw shape: "
      }
    }
  }
}
node {
  name: "global/LSTM_Layer/rnn/Assert/Assert/data_0"
  op: "Const"
  device: "/job:thread/task:0/device:CPU:0"
  attr {
    key: "_output_shapes"
    value {
      list {
        shape {
        }
      }
    }
  }
  attr {
    key: "dtype"
    value {
      type: DT_STRING
    }
  }
  attr {
    key: "value"
    value {
      tensor {
        dtype: DT_STRING
        tensor_shape {
        }
        string_val: "Expected shape for Tensor global/LSTM_Layer/rnn/sequence_length:0 is "
      }
    }
  }
}
node {
  name: "global/LSTM_Layer/rnn/Assert/Assert/data_2"
  op: "Const"
  device: "/job:thread/task:0/device:CPU:0"
  attr {
    key: "_output_shapes"
    value {
      list {
        shape {
        }
      }
    }
  }
  attr {
    key: "dtype"
    value {
      type: DT_STRING
    }
  }
  attr {
    key: "value"
    value {
      tensor {
        dtype: DT_STRING
        tensor_shape {
        }
        string_val: " but saw shape: "
      }
    }
  }
}
node {
  name: "global/LSTM_Layer/rnn/Assert/Assert"
  op: "Assert"
  input: "global/LSTM_Layer/rnn/All"
  input: "global/LSTM_Layer/rnn/Assert/Assert/data_0"
  input: "global/LSTM_Layer/rnn/stack"
  input: "global/LSTM_Layer/rnn/Assert/Assert/data_2"
  input: "global/LSTM_Layer/rnn/Shape"
  device: "/job:thread/task:0/device:CPU:0"
  attr {
    key: "T"
    value {
      list {
        type: DT_STRING
        type: DT_INT32
        type: DT_STRING
        type: DT_INT32
      }
    }
  }
  attr {
    key: "summarize"
    value {
      i: 3
    }
  }
}
node {
  name: "global/LSTM_Layer/rnn/CheckSeqLen"
  op: "Identity"
  input: "global/LSTM_Layer/rnn/sequence_length"
  input: "^global/LSTM_Layer/rnn/Assert/Assert"
  device: "/job:thread/task:0/device:CPU:0"
  attr {
    key: "T"
    value {
      type: DT_INT32
    }
  }
  attr {
    key: "_output_shapes"
    value {
      list {
        shape {
          dim {
            size: 1
          }
        }
      }
    }
  }
}
node {
  name: "global/LSTM_Layer/rnn/Shape_1"
  op: "Const"
  device: "/job:thread/task:0/device:CPU:0"
  attr {
    key: "_output_shapes"
    value {
      list {
        shape {
          dim {
            size: 3
          }
        }
      }
    }
  }
  attr {
    key: "dtype"
    value {
      type: DT_INT32
    }
  }
  attr {
    key: "value"
    value {
      tensor {
        dtype: DT_INT32
        tensor_shape {
          dim {
            size: 3
          }
        }
        tensor_content: "\001\000\000\000\001\000\000\000\377\000\000\000"
      }
    }
  }
}
node {
  name: "global/LSTM_Layer/rnn/strided_slice/stack"
  op: "Const"
  device: "/job:thread/task:0/device:CPU:0"
  attr {
    key: "_output_shapes"
    value {
      list {
        shape {
          dim {
            size: 1
          }
        }
      }
    }
  }
  attr {
    key: "dtype"
    value {
      type: DT_INT32
    }
  }
  attr {
    key: "value"
    value {
      tensor {
        dtype: DT_INT32
        tensor_shape {
          dim {
            size: 1
          }
        }
        int_val: 0
      }
    }
  }
}
node {
  name: "global/LSTM_Layer/rnn/strided_slice/stack_1"
  op: "Const"
  device: "/job:thread/task:0/device:CPU:0"
  attr {
    key: "_output_shapes"
    value {
      list {
        shape {
          dim {
            size: 1
          }
        }
      }
    }
  }
  attr {
    key: "dtype"
    value {
      type: DT_INT32
    }
  }
  attr {
    key: "value"
    value {
      tensor {
        dtype: DT_INT32
        tensor_shape {
          dim {
            size: 1
          }
        }
        int_val: 1
      }
    }
  }
}
node {
  name: "global/LSTM_Layer/rnn/strided_slice/stack_2"
  op: "Const"
  device: "/job:thread/task:0/device:CPU:0"
  attr {
    key: "_output_shapes"
    value {
      list {
        shape {
          dim {
            size: 1
          }
        }
      }
    }
  }
  attr {
    key: "dtype"
    value {
      type: DT_INT32
    }
  }
  attr {
    key: "value"
    value {
      tensor {
        dtype: DT_INT32
        tensor_shape {
          dim {
            size: 1
          }
        }
        int_val: 1
      }
    }
  }
}
node {
  name: "global/LSTM_Layer/rnn/strided_slice"
  op: "StridedSlice"
  input: "global/LSTM_Layer/rnn/Shape_1"
  input: "global/LSTM_Layer/rnn/strided_slice/stack"
  input: "global/LSTM_Layer/rnn/strided_slice/stack_1"
  input: "global/LSTM_Layer/rnn/strided_slice/stack_2"
  device: "/job:thread/task:0/device:CPU:0"
  attr {
    key: "Index"
    value {
      type: DT_INT32
    }
  }
  attr {
    key: "T"
    value {
      type: DT_INT32
    }
  }
  attr {
    key: "_output_shapes"
    value {
      list {
        shape {
        }
      }
    }
  }
  attr {
    key: "begin_mask"
    value {
      i: 0
    }
  }
  attr {
    key: "ellipsis_mask"
    value {
      i: 0
    }
  }
  attr {
    key: "end_mask"
    value {
      i: 0
    }
  }
  attr {
    key: "new_axis_mask"
    value {
      i: 0
    }
  }
  attr {
    key: "shrink_axis_mask"
    value {
      i: 1
    }
  }
}
node {
  name: "global/LSTM_Layer/rnn/Const_1"
  op: "Const"
  device: "/job:thread/task:0/device:CPU:0"
  attr {
    key: "_output_shapes"
    value {
      list {
        shape {
          dim {
            size: 1
          }
        }
      }
    }
  }
  attr {
    key: "dtype"
    value {
      type: DT_INT32
    }
  }
  attr {
    key: "value"
    value {
      tensor {
        dtype: DT_INT32
        tensor_shape {
          dim {
            size: 1
          }
        }
        int_val: 1
      }
    }
  }
}
node {
  name: "global/LSTM_Layer/rnn/Const_2"
  op: "Const"
  device: "/job:thread/task:0/device:CPU:0"
  attr {
    key: "_output_shapes"
    value {
      list {
        shape {
          dim {
            size: 1
          }
        }
      }
    }
  }
  attr {
    key: "dtype"
    value {
      type: DT_INT32
    }
  }
  attr {
    key: "value"
    value {
      tensor {
        dtype: DT_INT32
        tensor_shape {
          dim {
            size: 1
          }
        }
        int_val: 256
      }
    }
  }
}
node {
  name: "global/LSTM_Layer/rnn/concat_1/axis"
  op: "Const"
  device: "/job:thread/task:0/device:CPU:0"
  attr {
    key: "_output_shapes"
    value {
      list {
        shape {
        }
      }
    }
  }
  attr {
    key: "dtype"
    value {
      type: DT_INT32
    }
  }
  attr {
    key: "value"
    value {
      tensor {
        dtype: DT_INT32
        tensor_shape {
        }
        int_val: 0
      }
    }
  }
}
node {
  name: "global/LSTM_Layer/rnn/concat_1"
  op: "ConcatV2"
  input: "global/LSTM_Layer/rnn/Const_1"
  input: "global/LSTM_Layer/rnn/Const_2"
  input: "global/LSTM_Layer/rnn/concat_1/axis"
  device: "/job:thread/task:0/device:CPU:0"
  attr {
    key: "N"
    value {
      i: 2
    }
  }
  attr {
    key: "T"
    value {
      type: DT_INT32
    }
  }
  attr {
    key: "Tidx"
    value {
      type: DT_INT32
    }
  }
  attr {
    key: "_output_shapes"
    value {
      list {
        shape {
          dim {
            size: 2
          }
        }
      }
    }
  }
}
node {
  name: "global/LSTM_Layer/rnn/zeros/Const"
  op: "Const"
  device: "/job:thread/task:0/device:CPU:0"
  attr {
    key: "_output_shapes"
    value {
      list {
        shape {
        }
      }
    }
  }
  attr {
    key: "dtype"
    value {
      type: DT_FLOAT
    }
  }
  attr {
    key: "value"
    value {
      tensor {
        dtype: DT_FLOAT
        tensor_shape {
        }
        float_val: 0.0
      }
    }
  }
}
node {
  name: "global/LSTM_Layer/rnn/zeros"
  op: "Fill"
  input: "global/LSTM_Layer/rnn/concat_1"
  input: "global/LSTM_Layer/rnn/zeros/Const"
  device: "/job:thread/task:0/device:CPU:0"
  attr {
    key: "T"
    value {
      type: DT_FLOAT
    }
  }
  attr {
    key: "_output_shapes"
    value {
      list {
        shape {
          dim {
            size: 1
          }
          dim {
            size: 256
          }
        }
      }
    }
  }
  attr {
    key: "index_type"
    value {
      type: DT_INT32
    }
  }
}
node {
  name: "global/LSTM_Layer/rnn/Const_3"
  op: "Const"
  device: "/job:thread/task:0/device:CPU:0"
  attr {
    key: "_output_shapes"
    value {
      list {
        shape {
          dim {
            size: 1
          }
        }
      }
    }
  }
  attr {
    key: "dtype"
    value {
      type: DT_INT32
    }
  }
  attr {
    key: "value"
    value {
      tensor {
        dtype: DT_INT32
        tensor_shape {
          dim {
            size: 1
          }
        }
        int_val: 0
      }
    }
  }
}
node {
  name: "global/LSTM_Layer/rnn/Min"
  op: "Min"
  input: "global/LSTM_Layer/rnn/CheckSeqLen"
  input: "global/LSTM_Layer/rnn/Const_3"
  device: "/job:thread/task:0/device:CPU:0"
  attr {
    key: "T"
    value {
      type: DT_INT32
    }
  }
  attr {
    key: "Tidx"
    value {
      type: DT_INT32
    }
  }
  attr {
    key: "_output_shapes"
    value {
      list {
        shape {
        }
      }
    }
  }
  attr {
    key: "keep_dims"
    value {
      b: false
    }
  }
}
node {
  name: "global/LSTM_Layer/rnn/Const_4"
  op: "Const"
  device: "/job:thread/task:0/device:CPU:0"
  attr {
    key: "_output_shapes"
    value {
      list {
        shape {
          dim {
            size: 1
          }
        }
      }
    }
  }
  attr {
    key: "dtype"
    value {
      type: DT_INT32
    }
  }
  attr {
    key: "value"
    value {
      tensor {
        dtype: DT_INT32
        tensor_shape {
          dim {
            size: 1
          }
        }
        int_val: 0
      }
    }
  }
}
node {
  name: "global/LSTM_Layer/rnn/Max"
  op: "Max"
  input: "global/LSTM_Layer/rnn/CheckSeqLen"
  input: "global/LSTM_Layer/rnn/Const_4"
  device: "/job:thread/task:0/device:CPU:0"
  attr {
    key: "T"
    value {
      type: DT_INT32
    }
  }
  attr {
    key: "Tidx"
    value {
      type: DT_INT32
    }
  }
  attr {
    key: "_output_shapes"
    value {
      list {
        shape {
        }
      }
    }
  }
  attr {
    key: "keep_dims"
    value {
      b: false
    }
  }
}
node {
  name: "global/LSTM_Layer/rnn/time"
  op: "Const"
  device: "/job:thread/task:0/device:CPU:0"
  attr {
    key: "_output_shapes"
    value {
      list {
        shape {
        }
      }
    }
  }
  attr {
    key: "dtype"
    value {
      type: DT_INT32
    }
  }
  attr {
    key: "value"
    value {
      tensor {
        dtype: DT_INT32
        tensor_shape {
        }
        int_val: 0
      }
    }
  }
}
node {
  name: "global/LSTM_Layer/rnn/TensorArray"
  op: "TensorArrayV3"
  input: "global/LSTM_Layer/rnn/strided_slice"
  attr {
    key: "_output_shapes"
    value {
      list {
        shape {
          dim {
            size: 2
          }
        }
        shape {
        }
      }
    }
  }
  attr {
    key: "clear_after_read"
    value {
      b: true
    }
  }
  attr {
    key: "dtype"
    value {
      type: DT_FLOAT
    }
  }
  attr {
    key: "dynamic_size"
    value {
      b: false
    }
  }
  attr {
    key: "element_shape"
    value {
      shape {
        dim {
          size: 1
        }
        dim {
          size: 256
        }
      }
    }
  }
  attr {
    key: "identical_element_shapes"
    value {
      b: true
    }
  }
  attr {
    key: "tensor_array_name"
    value {
      s: "global/LSTM_Layer/rnn/dynamic_rnn/output_0"
    }
  }
}
node {
  name: "global/LSTM_Layer/rnn/TensorArray_1"
  op: "TensorArrayV3"
  input: "global/LSTM_Layer/rnn/strided_slice"
  attr {
    key: "_output_shapes"
    value {
      list {
        shape {
          dim {
            size: 2
          }
        }
        shape {
        }
      }
    }
  }
  attr {
    key: "clear_after_read"
    value {
      b: true
    }
  }
  attr {
    key: "dtype"
    value {
      type: DT_FLOAT
    }
  }
  attr {
    key: "dynamic_size"
    value {
      b: false
    }
  }
  attr {
    key: "element_shape"
    value {
      shape {
        dim {
          size: 1
        }
        dim {
          size: 255
        }
      }
    }
  }
  attr {
    key: "identical_element_shapes"
    value {
      b: true
    }
  }
  attr {
    key: "tensor_array_name"
    value {
      s: "global/LSTM_Layer/rnn/dynamic_rnn/input_0"
    }
  }
}
node {
  name: "global/LSTM_Layer/rnn/TensorArrayUnstack/Shape"
  op: "Const"
  device: "/job:thread/task:0/device:CPU:0"
  attr {
    key: "_output_shapes"
    value {
      list {
        shape {
          dim {
            size: 3
          }
        }
      }
    }
  }
  attr {
    key: "dtype"
    value {
      type: DT_INT32
    }
  }
  attr {
    key: "value"
    value {
      tensor {
        dtype: DT_INT32
        tensor_shape {
          dim {
            size: 3
          }
        }
        tensor_content: "\001\000\000\000\001\000\000\000\377\000\000\000"
      }
    }
  }
}
node {
  name: "global/LSTM_Layer/rnn/TensorArrayUnstack/strided_slice/stack"
  op: "Const"
  device: "/job:thread/task:0/device:CPU:0"
  attr {
    key: "_output_shapes"
    value {
      list {
        shape {
          dim {
            size: 1
          }
        }
      }
    }
  }
  attr {
    key: "dtype"
    value {
      type: DT_INT32
    }
  }
  attr {
    key: "value"
    value {
      tensor {
        dtype: DT_INT32
        tensor_shape {
          dim {
            size: 1
          }
        }
        int_val: 0
      }
    }
  }
}
node {
  name: "global/LSTM_Layer/rnn/TensorArrayUnstack/strided_slice/stack_1"
  op: "Const"
  device: "/job:thread/task:0/device:CPU:0"
  attr {
    key: "_output_shapes"
    value {
      list {
        shape {
          dim {
            size: 1
          }
        }
      }
    }
  }
  attr {
    key: "dtype"
    value {
      type: DT_INT32
    }
  }
  attr {
    key: "value"
    value {
      tensor {
        dtype: DT_INT32
        tensor_shape {
          dim {
            size: 1
          }
        }
        int_val: 1
      }
    }
  }
}
node {
  name: "global/LSTM_Layer/rnn/TensorArrayUnstack/strided_slice/stack_2"
  op: "Const"
  device: "/job:thread/task:0/device:CPU:0"
  attr {
    key: "_output_shapes"
    value {
      list {
        shape {
          dim {
            size: 1
          }
        }
      }
    }
  }
  attr {
    key: "dtype"
    value {
      type: DT_INT32
    }
  }
  attr {
    key: "value"
    value {
      tensor {
        dtype: DT_INT32
        tensor_shape {
          dim {
            size: 1
          }
        }
        int_val: 1
      }
    }
  }
}
node {
  name: "global/LSTM_Layer/rnn/TensorArrayUnstack/strided_slice"
  op: "StridedSlice"
  input: "global/LSTM_Layer/rnn/TensorArrayUnstack/Shape"
  input: "global/LSTM_Layer/rnn/TensorArrayUnstack/strided_slice/stack"
  input: "global/LSTM_Layer/rnn/TensorArrayUnstack/strided_slice/stack_1"
  input: "global/LSTM_Layer/rnn/TensorArrayUnstack/strided_slice/stack_2"
  device: "/job:thread/task:0/device:CPU:0"
  attr {
    key: "Index"
    value {
      type: DT_INT32
    }
  }
  attr {
    key: "T"
    value {
      type: DT_INT32
    }
  }
  attr {
    key: "_output_shapes"
    value {
      list {
        shape {
        }
      }
    }
  }
  attr {
    key: "begin_mask"
    value {
      i: 0
    }
  }
  attr {
    key: "ellipsis_mask"
    value {
      i: 0
    }
  }
  attr {
    key: "end_mask"
    value {
      i: 0
    }
  }
  attr {
    key: "new_axis_mask"
    value {
      i: 0
    }
  }
  attr {
    key: "shrink_axis_mask"
    value {
      i: 1
    }
  }
}
node {
  name: "global/LSTM_Layer/rnn/TensorArrayUnstack/range/start"
  op: "Const"
  device: "/job:thread/task:0/device:CPU:0"
  attr {
    key: "_output_shapes"
    value {
      list {
        shape {
        }
      }
    }
  }
  attr {
    key: "dtype"
    value {
      type: DT_INT32
    }
  }
  attr {
    key: "value"
    value {
      tensor {
        dtype: DT_INT32
        tensor_shape {
        }
        int_val: 0
      }
    }
  }
}
node {
  name: "global/LSTM_Layer/rnn/TensorArrayUnstack/range/delta"
  op: "Const"
  device: "/job:thread/task:0/device:CPU:0"
  attr {
    key: "_output_shapes"
    value {
      list {
        shape {
        }
      }
    }
  }
  attr {
    key: "dtype"
    value {
      type: DT_INT32
    }
  }
  attr {
    key: "value"
    value {
      tensor {
        dtype: DT_INT32
        tensor_shape {
        }
        int_val: 1
      }
    }
  }
}
node {
  name: "global/LSTM_Layer/rnn/TensorArrayUnstack/range"
  op: "Range"
  input: "global/LSTM_Layer/rnn/TensorArrayUnstack/range/start"
  input: "global/LSTM_Layer/rnn/TensorArrayUnstack/strided_slice"
  input: "global/LSTM_Layer/rnn/TensorArrayUnstack/range/delta"
  device: "/job:thread/task:0/device:CPU:0"
  attr {
    key: "Tidx"
    value {
      type: DT_INT32
    }
  }
  attr {
    key: "_output_shapes"
    value {
      list {
        shape {
          dim {
            size: 1
          }
        }
      }
    }
  }
}
node {
  name: "global/LSTM_Layer/rnn/TensorArrayUnstack/TensorArrayScatter/TensorArrayScatterV3"
  op: "TensorArrayScatterV3"
  input: "global/LSTM_Layer/rnn/TensorArray_1"
  input: "global/LSTM_Layer/rnn/TensorArrayUnstack/range"
  input: "global/LSTM_Layer/rnn/transpose"
  input: "global/LSTM_Layer/rnn/TensorArray_1:1"
  device: "/job:thread/task:0/device:CPU:0"
  attr {
    key: "T"
    value {
      type: DT_FLOAT
    }
  }
  attr {
    key: "_class"
    value {
      list {
        s: "loc:@global/LSTM_Layer/rnn/transpose"
      }
    }
  }
  attr {
    key: "_output_shapes"
    value {
      list {
        shape {
        }
      }
    }
  }
}
node {
  name: "global/LSTM_Layer/rnn/Maximum/x"
  op: "Const"
  device: "/job:thread/task:0/device:CPU:0"
  attr {
    key: "_output_shapes"
    value {
      list {
        shape {
        }
      }
    }
  }
  attr {
    key: "dtype"
    value {
      type: DT_INT32
    }
  }
  attr {
    key: "value"
    value {
      tensor {
        dtype: DT_INT32
        tensor_shape {
        }
        int_val: 1
      }
    }
  }
}
node {
  name: "global/LSTM_Layer/rnn/Maximum"
  op: "Maximum"
  input: "global/LSTM_Layer/rnn/Maximum/x"
  input: "global/LSTM_Layer/rnn/Max"
  device: "/job:thread/task:0/device:CPU:0"
  attr {
    key: "T"
    value {
      type: DT_INT32
    }
  }
  attr {
    key: "_output_shapes"
    value {
      list {
        shape {
        }
      }
    }
  }
}
node {
  name: "global/LSTM_Layer/rnn/Minimum"
  op: "Minimum"
  input: "global/LSTM_Layer/rnn/strided_slice"
  input: "global/LSTM_Layer/rnn/Maximum"
  device: "/job:thread/task:0/device:CPU:0"
  attr {
    key: "T"
    value {
      type: DT_INT32
    }
  }
  attr {
    key: "_output_shapes"
    value {
      list {
        shape {
        }
      }
    }
  }
}
node {
  name: "global/LSTM_Layer/rnn/while/iteration_counter"
  op: "Const"
  device: "/job:thread/task:0/device:CPU:0"
  attr {
    key: "_output_shapes"
    value {
      list {
        shape {
        }
      }
    }
  }
  attr {
    key: "dtype"
    value {
      type: DT_INT32
    }
  }
  attr {
    key: "value"
    value {
      tensor {
        dtype: DT_INT32
        tensor_shape {
        }
        int_val: 0
      }
    }
  }
}
node {
  name: "global/LSTM_Layer/rnn/while/Enter"
  op: "Enter"
  input: "global/LSTM_Layer/rnn/while/iteration_counter"
  device: "/job:thread/task:0/device:CPU:0"
  attr {
    key: "T"
    value {
      type: DT_INT32
    }
  }
  attr {
    key: "_output_shapes"
    value {
      list {
        shape {
        }
      }
    }
  }
  attr {
    key: "frame_name"
    value {
      s: "global/LSTM_Layer/rnn/while/while_context"
    }
  }
  attr {
    key: "is_constant"
    value {
      b: false
    }
  }
  attr {
    key: "parallel_iterations"
    value {
      i: 32
    }
  }
}
node {
  name: "global/LSTM_Layer/rnn/while/Enter_1"
  op: "Enter"
  input: "global/LSTM_Layer/rnn/time"
  device: "/job:thread/task:0/device:CPU:0"
  attr {
    key: "T"
    value {
      type: DT_INT32
    }
  }
  attr {
    key: "_output_shapes"
    value {
      list {
        shape {
        }
      }
    }
  }
  attr {
    key: "frame_name"
    value {
      s: "global/LSTM_Layer/rnn/while/while_context"
    }
  }
  attr {
    key: "is_constant"
    value {
      b: false
    }
  }
  attr {
    key: "parallel_iterations"
    value {
      i: 32
    }
  }
}
node {
  name: "global/LSTM_Layer/rnn/while/Enter_2"
  op: "Enter"
  input: "global/LSTM_Layer/rnn/TensorArray:1"
  device: "/job:thread/task:0/device:CPU:0"
  attr {
    key: "T"
    value {
      type: DT_FLOAT
    }
  }
  attr {
    key: "_output_shapes"
    value {
      list {
        shape {
        }
      }
    }
  }
  attr {
    key: "frame_name"
    value {
      s: "global/LSTM_Layer/rnn/while/while_context"
    }
  }
  attr {
    key: "is_constant"
    value {
      b: false
    }
  }
  attr {
    key: "parallel_iterations"
    value {
      i: 32
    }
  }
}
node {
  name: "global/LSTM_Layer/rnn/while/Enter_3"
  op: "Enter"
  input: "global/LSTM_Layer/Placeholder"
  device: "/job:thread/task:0/device:CPU:0"
  attr {
    key: "T"
    value {
      type: DT_FLOAT
    }
  }
  attr {
    key: "_output_shapes"
    value {
      list {
        shape {
          dim {
            size: 1
          }
          dim {
            size: 256
          }
        }
      }
    }
  }
  attr {
    key: "frame_name"
    value {
      s: "global/LSTM_Layer/rnn/while/while_context"
    }
  }
  attr {
    key: "is_constant"
    value {
      b: false
    }
  }
  attr {
    key: "parallel_iterations"
    value {
      i: 32
    }
  }
}
node {
  name: "global/LSTM_Layer/rnn/while/Enter_4"
  op: "Enter"
  input: "global/LSTM_Layer/Placeholder_1"
  device: "/job:thread/task:0/device:CPU:0"
  attr {
    key: "T"
    value {
      type: DT_FLOAT
    }
  }
  attr {
    key: "_output_shapes"
    value {
      list {
        shape {
          dim {
            size: 1
          }
          dim {
            size: 256
          }
        }
      }
    }
  }
  attr {
    key: "frame_name"
    value {
      s: "global/LSTM_Layer/rnn/while/while_context"
    }
  }
  attr {
    key: "is_constant"
    value {
      b: false
    }
  }
  attr {
    key: "parallel_iterations"
    value {
      i: 32
    }
  }
}
node {
  name: "global/LSTM_Layer/rnn/while/Merge"
  op: "Merge"
  input: "global/LSTM_Layer/rnn/while/Enter"
  input: "global/LSTM_Layer/rnn/while/NextIteration"
  device: "/job:thread/task:0/device:CPU:0"
  attr {
    key: "N"
    value {
      i: 2
    }
  }
  attr {
    key: "T"
    value {
      type: DT_INT32
    }
  }
  attr {
    key: "_output_shapes"
    value {
      list {
        shape {
        }
        shape {
        }
      }
    }
  }
}
node {
  name: "global/LSTM_Layer/rnn/while/Merge_1"
  op: "Merge"
  input: "global/LSTM_Layer/rnn/while/Enter_1"
  input: "global/LSTM_Layer/rnn/while/NextIteration_1"
  device: "/job:thread/task:0/device:CPU:0"
  attr {
    key: "N"
    value {
      i: 2
    }
  }
  attr {
    key: "T"
    value {
      type: DT_INT32
    }
  }
  attr {
    key: "_output_shapes"
    value {
      list {
        shape {
        }
        shape {
        }
      }
    }
  }
}
node {
  name: "global/LSTM_Layer/rnn/while/Merge_2"
  op: "Merge"
  input: "global/LSTM_Layer/rnn/while/Enter_2"
  input: "global/LSTM_Layer/rnn/while/NextIteration_2"
  device: "/job:thread/task:0/device:CPU:0"
  attr {
    key: "N"
    value {
      i: 2
    }
  }
  attr {
    key: "T"
    value {
      type: DT_FLOAT
    }
  }
  attr {
    key: "_output_shapes"
    value {
      list {
        shape {
        }
        shape {
        }
      }
    }
  }
}
node {
  name: "global/LSTM_Layer/rnn/while/Merge_3"
  op: "Merge"
  input: "global/LSTM_Layer/rnn/while/Enter_3"
  input: "global/LSTM_Layer/rnn/while/NextIteration_3"
  device: "/job:thread/task:0/device:CPU:0"
  attr {
    key: "N"
    value {
      i: 2
    }
  }
  attr {
    key: "T"
    value {
      type: DT_FLOAT
    }
  }
  attr {
    key: "_output_shapes"
    value {
      list {
        shape {
          dim {
            size: 1
          }
          dim {
            size: 256
          }
        }
        shape {
        }
      }
    }
  }
}
node {
  name: "global/LSTM_Layer/rnn/while/Merge_4"
  op: "Merge"
  input: "global/LSTM_Layer/rnn/while/Enter_4"
  input: "global/LSTM_Layer/rnn/while/NextIteration_4"
  device: "/job:thread/task:0/device:CPU:0"
  attr {
    key: "N"
    value {
      i: 2
    }
  }
  attr {
    key: "T"
    value {
      type: DT_FLOAT
    }
  }
  attr {
    key: "_output_shapes"
    value {
      list {
        shape {
          dim {
            size: 1
          }
          dim {
            size: 256
          }
        }
        shape {
        }
      }
    }
  }
}
node {
  name: "global/LSTM_Layer/rnn/while/Less"
  op: "Less"
  input: "global/LSTM_Layer/rnn/while/Merge"
  input: "global/LSTM_Layer/rnn/while/Less/Enter"
  device: "/job:thread/task:0/device:CPU:0"
  attr {
    key: "T"
    value {
      type: DT_INT32
    }
  }
  attr {
    key: "_output_shapes"
    value {
      list {
        shape {
        }
      }
    }
  }
}
node {
  name: "global/LSTM_Layer/rnn/while/Less/Enter"
  op: "Enter"
  input: "global/LSTM_Layer/rnn/strided_slice"
  device: "/job:thread/task:0/device:CPU:0"
  attr {
    key: "T"
    value {
      type: DT_INT32
    }
  }
  attr {
    key: "_output_shapes"
    value {
      list {
        shape {
        }
      }
    }
  }
  attr {
    key: "frame_name"
    value {
      s: "global/LSTM_Layer/rnn/while/while_context"
    }
  }
  attr {
    key: "is_constant"
    value {
      b: true
    }
  }
  attr {
    key: "parallel_iterations"
    value {
      i: 32
    }
  }
}
node {
  name: "global/LSTM_Layer/rnn/while/Less_1"
  op: "Less"
  input: "global/LSTM_Layer/rnn/while/Merge_1"
  input: "global/LSTM_Layer/rnn/while/Less_1/Enter"
  device: "/job:thread/task:0/device:CPU:0"
  attr {
    key: "T"
    value {
      type: DT_INT32
    }
  }
  attr {
    key: "_output_shapes"
    value {
      list {
        shape {
        }
      }
    }
  }
}
node {
  name: "global/LSTM_Layer/rnn/while/Less_1/Enter"
  op: "Enter"
  input: "global/LSTM_Layer/rnn/Minimum"
  device: "/job:thread/task:0/device:CPU:0"
  attr {
    key: "T"
    value {
      type: DT_INT32
    }
  }
  attr {
    key: "_output_shapes"
    value {
      list {
        shape {
        }
      }
    }
  }
  attr {
    key: "frame_name"
    value {
      s: "global/LSTM_Layer/rnn/while/while_context"
    }
  }
  attr {
    key: "is_constant"
    value {
      b: true
    }
  }
  attr {
    key: "parallel_iterations"
    value {
      i: 32
    }
  }
}
node {
  name: "global/LSTM_Layer/rnn/while/LogicalAnd"
  op: "LogicalAnd"
  input: "global/LSTM_Layer/rnn/while/Less"
  input: "global/LSTM_Layer/rnn/while/Less_1"
  device: "/job:thread/task:0/device:CPU:0"
  attr {
    key: "_output_shapes"
    value {
      list {
        shape {
        }
      }
    }
  }
}
node {
  name: "global/LSTM_Layer/rnn/while/LoopCond"
  op: "LoopCond"
  input: "global/LSTM_Layer/rnn/while/LogicalAnd"
  device: "/job:thread/task:0/device:CPU:0"
  attr {
    key: "_output_shapes"
    value {
      list {
        shape {
        }
      }
    }
  }
}
node {
  name: "global/LSTM_Layer/rnn/while/Switch"
  op: "Switch"
  input: "global/LSTM_Layer/rnn/while/Merge"
  input: "global/LSTM_Layer/rnn/while/LoopCond"
  device: "/job:thread/task:0/device:CPU:0"
  attr {
    key: "T"
    value {
      type: DT_INT32
    }
  }
  attr {
    key: "_class"
    value {
      list {
        s: "loc:@global/LSTM_Layer/rnn/while/Merge"
      }
    }
  }
  attr {
    key: "_output_shapes"
    value {
      list {
        shape {
        }
        shape {
        }
      }
    }
  }
}
node {
  name: "global/LSTM_Layer/rnn/while/Switch_1"
  op: "Switch"
  input: "global/LSTM_Layer/rnn/while/Merge_1"
  input: "global/LSTM_Layer/rnn/while/LoopCond"
  device: "/job:thread/task:0/device:CPU:0"
  attr {
    key: "T"
    value {
      type: DT_INT32
    }
  }
  attr {
    key: "_class"
    value {
      list {
        s: "loc:@global/LSTM_Layer/rnn/while/Merge_1"
      }
    }
  }
  attr {
    key: "_output_shapes"
    value {
      list {
        shape {
        }
        shape {
        }
      }
    }
  }
}
node {
  name: "global/LSTM_Layer/rnn/while/Switch_2"
  op: "Switch"
  input: "global/LSTM_Layer/rnn/while/Merge_2"
  input: "global/LSTM_Layer/rnn/while/LoopCond"
  device: "/job:thread/task:0/device:CPU:0"
  attr {
    key: "T"
    value {
      type: DT_FLOAT
    }
  }
  attr {
    key: "_class"
    value {
      list {
        s: "loc:@global/LSTM_Layer/rnn/while/Merge_2"
      }
    }
  }
  attr {
    key: "_output_shapes"
    value {
      list {
        shape {
        }
        shape {
        }
      }
    }
  }
}
node {
  name: "global/LSTM_Layer/rnn/while/Switch_3"
  op: "Switch"
  input: "global/LSTM_Layer/rnn/while/Merge_3"
  input: "global/LSTM_Layer/rnn/while/LoopCond"
  device: "/job:thread/task:0/device:CPU:0"
  attr {
    key: "T"
    value {
      type: DT_FLOAT
    }
  }
  attr {
    key: "_class"
    value {
      list {
        s: "loc:@global/LSTM_Layer/rnn/while/Merge_3"
      }
    }
  }
  attr {
    key: "_output_shapes"
    value {
      list {
        shape {
          dim {
            size: 1
          }
          dim {
            size: 256
          }
        }
        shape {
          dim {
            size: 1
          }
          dim {
            size: 256
          }
        }
      }
    }
  }
}
node {
  name: "global/LSTM_Layer/rnn/while/Switch_4"
  op: "Switch"
  input: "global/LSTM_Layer/rnn/while/Merge_4"
  input: "global/LSTM_Layer/rnn/while/LoopCond"
  device: "/job:thread/task:0/device:CPU:0"
  attr {
    key: "T"
    value {
      type: DT_FLOAT
    }
  }
  attr {
    key: "_class"
    value {
      list {
        s: "loc:@global/LSTM_Layer/rnn/while/Merge_4"
      }
    }
  }
  attr {
    key: "_output_shapes"
    value {
      list {
        shape {
          dim {
            size: 1
          }
          dim {
            size: 256
          }
        }
        shape {
          dim {
            size: 1
          }
          dim {
            size: 256
          }
        }
      }
    }
  }
}
node {
  name: "global/LSTM_Layer/rnn/while/Identity"
  op: "Identity"
  input: "global/LSTM_Layer/rnn/while/Switch:1"
  device: "/job:thread/task:0/device:CPU:0"
  attr {
    key: "T"
    value {
      type: DT_INT32
    }
  }
  attr {
    key: "_output_shapes"
    value {
      list {
        shape {
        }
      }
    }
  }
}
node {
  name: "global/LSTM_Layer/rnn/while/Identity_1"
  op: "Identity"
  input: "global/LSTM_Layer/rnn/while/Switch_1:1"
  device: "/job:thread/task:0/device:CPU:0"
  attr {
    key: "T"
    value {
      type: DT_INT32
    }
  }
  attr {
    key: "_output_shapes"
    value {
      list {
        shape {
        }
      }
    }
  }
}
node {
  name: "global/LSTM_Layer/rnn/while/Identity_2"
  op: "Identity"
  input: "global/LSTM_Layer/rnn/while/Switch_2:1"
  device: "/job:thread/task:0/device:CPU:0"
  attr {
    key: "T"
    value {
      type: DT_FLOAT
    }
  }
  attr {
    key: "_output_shapes"
    value {
      list {
        shape {
        }
      }
    }
  }
}
node {
  name: "global/LSTM_Layer/rnn/while/Identity_3"
  op: "Identity"
  input: "global/LSTM_Layer/rnn/while/Switch_3:1"
  device: "/job:thread/task:0/device:CPU:0"
  attr {
    key: "T"
    value {
      type: DT_FLOAT
    }
  }
  attr {
    key: "_output_shapes"
    value {
      list {
        shape {
          dim {
            size: 1
          }
          dim {
            size: 256
          }
        }
      }
    }
  }
}
node {
  name: "global/LSTM_Layer/rnn/while/Identity_4"
  op: "Identity"
  input: "global/LSTM_Layer/rnn/while/Switch_4:1"
  device: "/job:thread/task:0/device:CPU:0"
  attr {
    key: "T"
    value {
      type: DT_FLOAT
    }
  }
  attr {
    key: "_output_shapes"
    value {
      list {
        shape {
          dim {
            size: 1
          }
          dim {
            size: 256
          }
        }
      }
    }
  }
}
node {
  name: "global/LSTM_Layer/rnn/while/add/y"
  op: "Const"
  input: "^global/LSTM_Layer/rnn/while/Identity"
  device: "/job:thread/task:0/device:CPU:0"
  attr {
    key: "_output_shapes"
    value {
      list {
        shape {
        }
      }
    }
  }
  attr {
    key: "dtype"
    value {
      type: DT_INT32
    }
  }
  attr {
    key: "value"
    value {
      tensor {
        dtype: DT_INT32
        tensor_shape {
        }
        int_val: 1
      }
    }
  }
}
node {
  name: "global/LSTM_Layer/rnn/while/add"
  op: "AddV2"
  input: "global/LSTM_Layer/rnn/while/Identity"
  input: "global/LSTM_Layer/rnn/while/add/y"
  device: "/job:thread/task:0/device:CPU:0"
  attr {
    key: "T"
    value {
      type: DT_INT32
    }
  }
  attr {
    key: "_output_shapes"
    value {
      list {
        shape {
        }
      }
    }
  }
}
node {
  name: "global/LSTM_Layer/rnn/while/TensorArrayReadV3"
  op: "TensorArrayReadV3"
  input: "global/LSTM_Layer/rnn/while/TensorArrayReadV3/Enter"
  input: "global/LSTM_Layer/rnn/while/Identity_1"
  input: "global/LSTM_Layer/rnn/while/TensorArrayReadV3/Enter_1"
  device: "/job:thread/task:0/device:CPU:0"
  attr {
    key: "_output_shapes"
    value {
      list {
        shape {
          dim {
            size: 1
          }
          dim {
            size: 255
          }
        }
      }
    }
  }
  attr {
    key: "dtype"
    value {
      type: DT_FLOAT
    }
  }
}
node {
  name: "global/LSTM_Layer/rnn/while/TensorArrayReadV3/Enter"
  op: "Enter"
  input: "global/LSTM_Layer/rnn/TensorArray_1"
  device: "/job:thread/task:0/device:CPU:0"
  attr {
    key: "T"
    value {
      type: DT_RESOURCE
    }
  }
  attr {
    key: "_output_shapes"
    value {
      list {
        shape {
          dim {
            size: 2
          }
        }
      }
    }
  }
  attr {
    key: "frame_name"
    value {
      s: "global/LSTM_Layer/rnn/while/while_context"
    }
  }
  attr {
    key: "is_constant"
    value {
      b: true
    }
  }
  attr {
    key: "parallel_iterations"
    value {
      i: 32
    }
  }
}
node {
  name: "global/LSTM_Layer/rnn/while/TensorArrayReadV3/Enter_1"
  op: "Enter"
  input: "global/LSTM_Layer/rnn/TensorArrayUnstack/TensorArrayScatter/TensorArrayScatterV3"
  device: "/job:thread/task:0/device:CPU:0"
  attr {
    key: "T"
    value {
      type: DT_FLOAT
    }
  }
  attr {
    key: "_output_shapes"
    value {
      list {
        shape {
        }
      }
    }
  }
  attr {
    key: "frame_name"
    value {
      s: "global/LSTM_Layer/rnn/while/while_context"
    }
  }
  attr {
    key: "is_constant"
    value {
      b: true
    }
  }
  attr {
    key: "parallel_iterations"
    value {
      i: 32
    }
  }
}
node {
  name: "global/LSTM_Layer/rnn/while/GreaterEqual"
  op: "GreaterEqual"
  input: "global/LSTM_Layer/rnn/while/Identity_1"
  input: "global/LSTM_Layer/rnn/while/GreaterEqual/Enter"
  device: "/job:thread/task:0/device:CPU:0"
  attr {
    key: "T"
    value {
      type: DT_INT32
    }
  }
  attr {
    key: "_output_shapes"
    value {
      list {
        shape {
          dim {
            size: 1
          }
        }
      }
    }
  }
}
node {
  name: "global/LSTM_Layer/rnn/while/GreaterEqual/Enter"
  op: "Enter"
  input: "global/LSTM_Layer/rnn/CheckSeqLen"
  device: "/job:thread/task:0/device:CPU:0"
  attr {
    key: "T"
    value {
      type: DT_INT32
    }
  }
  attr {
    key: "_output_shapes"
    value {
      list {
        shape {
          dim {
            size: 1
          }
        }
      }
    }
  }
  attr {
    key: "frame_name"
    value {
      s: "global/LSTM_Layer/rnn/while/while_context"
    }
  }
  attr {
    key: "is_constant"
    value {
      b: true
    }
  }
  attr {
    key: "parallel_iterations"
    value {
      i: 32
    }
  }
}
node {
  name: "global/rnn/basic_lstm_cell/kernel/Initializer/random_uniform/shape"
  op: "Const"
  attr {
    key: "_class"
    value {
      list {
        s: "loc:@global/rnn/basic_lstm_cell/kernel"
      }
    }
  }
  attr {
    key: "_output_shapes"
    value {
      list {
        shape {
          dim {
            size: 2
          }
        }
      }
    }
  }
  attr {
    key: "dtype"
    value {
      type: DT_INT32
    }
  }
  attr {
    key: "value"
    value {
      tensor {
        dtype: DT_INT32
        tensor_shape {
          dim {
            size: 2
          }
        }
        tensor_content: "\377\001\000\000\000\004\000\000"
      }
    }
  }
}
node {
  name: "global/rnn/basic_lstm_cell/kernel/Initializer/random_uniform/min"
  op: "Const"
  attr {
    key: "_class"
    value {
      list {
        s: "loc:@global/rnn/basic_lstm_cell/kernel"
      }
    }
  }
  attr {
    key: "_output_shapes"
    value {
      list {
        shape {
        }
      }
    }
  }
  attr {
    key: "dtype"
    value {
      type: DT_FLOAT
    }
  }
  attr {
    key: "value"
    value {
      tensor {
        dtype: DT_FLOAT
        tensor_shape {
        }
        float_val: -0.0625203549861908
      }
    }
  }
}
node {
  name: "global/rnn/basic_lstm_cell/kernel/Initializer/random_uniform/max"
  op: "Const"
  attr {
    key: "_class"
    value {
      list {
        s: "loc:@global/rnn/basic_lstm_cell/kernel"
      }
    }
  }
  attr {
    key: "_output_shapes"
    value {
      list {
        shape {
        }
      }
    }
  }
  attr {
    key: "dtype"
    value {
      type: DT_FLOAT
    }
  }
  attr {
    key: "value"
    value {
      tensor {
        dtype: DT_FLOAT
        tensor_shape {
        }
        float_val: 0.0625203549861908
      }
    }
  }
}
node {
  name: "global/rnn/basic_lstm_cell/kernel/Initializer/random_uniform/RandomUniform"
  op: "RandomUniform"
  input: "global/rnn/basic_lstm_cell/kernel/Initializer/random_uniform/shape"
  attr {
    key: "T"
    value {
      type: DT_INT32
    }
  }
  attr {
    key: "_class"
    value {
      list {
        s: "loc:@global/rnn/basic_lstm_cell/kernel"
      }
    }
  }
  attr {
    key: "_output_shapes"
    value {
      list {
        shape {
          dim {
            size: 511
          }
          dim {
            size: 1024
          }
        }
      }
    }
  }
  attr {
    key: "dtype"
    value {
      type: DT_FLOAT
    }
  }
  attr {
    key: "seed"
    value {
      i: 0
    }
  }
  attr {
    key: "seed2"
    value {
      i: 0
    }
  }
}
node {
  name: "global/rnn/basic_lstm_cell/kernel/Initializer/random_uniform/sub"
  op: "Sub"
  input: "global/rnn/basic_lstm_cell/kernel/Initializer/random_uniform/max"
  input: "global/rnn/basic_lstm_cell/kernel/Initializer/random_uniform/min"
  attr {
    key: "T"
    value {
      type: DT_FLOAT
    }
  }
  attr {
    key: "_class"
    value {
      list {
        s: "loc:@global/rnn/basic_lstm_cell/kernel"
      }
    }
  }
  attr {
    key: "_output_shapes"
    value {
      list {
        shape {
        }
      }
    }
  }
}
node {
  name: "global/rnn/basic_lstm_cell/kernel/Initializer/random_uniform/mul"
  op: "Mul"
  input: "global/rnn/basic_lstm_cell/kernel/Initializer/random_uniform/RandomUniform"
  input: "global/rnn/basic_lstm_cell/kernel/Initializer/random_uniform/sub"
  attr {
    key: "T"
    value {
      type: DT_FLOAT
    }
  }
  attr {
    key: "_class"
    value {
      list {
        s: "loc:@global/rnn/basic_lstm_cell/kernel"
      }
    }
  }
  attr {
    key: "_output_shapes"
    value {
      list {
        shape {
          dim {
            size: 511
          }
          dim {
            size: 1024
          }
        }
      }
    }
  }
}
node {
  name: "global/rnn/basic_lstm_cell/kernel/Initializer/random_uniform"
  op: "Add"
  input: "global/rnn/basic_lstm_cell/kernel/Initializer/random_uniform/mul"
  input: "global/rnn/basic_lstm_cell/kernel/Initializer/random_uniform/min"
  attr {
    key: "T"
    value {
      type: DT_FLOAT
    }
  }
  attr {
    key: "_class"
    value {
      list {
        s: "loc:@global/rnn/basic_lstm_cell/kernel"
      }
    }
  }
  attr {
    key: "_output_shapes"
    value {
      list {
        shape {
          dim {
            size: 511
          }
          dim {
            size: 1024
          }
        }
      }
    }
  }
}
node {
  name: "global/rnn/basic_lstm_cell/kernel"
  op: "VariableV2"
  device: "/job:master/task:0"
  attr {
    key: "_class"
    value {
      list {
        s: "loc:@global/rnn/basic_lstm_cell/kernel"
      }
    }
  }
  attr {
    key: "_output_shapes"
    value {
      list {
        shape {
          dim {
            size: 511
          }
          dim {
            size: 1024
          }
        }
      }
    }
  }
  attr {
    key: "container"
    value {
      s: ""
    }
  }
  attr {
    key: "dtype"
    value {
      type: DT_FLOAT
    }
  }
  attr {
    key: "shape"
    value {
      shape {
        dim {
          size: 511
        }
        dim {
          size: 1024
        }
      }
    }
  }
  attr {
    key: "shared_name"
    value {
      s: ""
    }
  }
}
node {
  name: "global/rnn/basic_lstm_cell/kernel/Assign"
  op: "Assign"
  input: "global/rnn/basic_lstm_cell/kernel"
  input: "global/rnn/basic_lstm_cell/kernel/Initializer/random_uniform"
  device: "/job:master/task:0"
  attr {
    key: "T"
    value {
      type: DT_FLOAT
    }
  }
  attr {
    key: "_class"
    value {
      list {
        s: "loc:@global/rnn/basic_lstm_cell/kernel"
      }
    }
  }
  attr {
    key: "_output_shapes"
    value {
      list {
        shape {
          dim {
            size: 511
          }
          dim {
            size: 1024
          }
        }
      }
    }
  }
  attr {
    key: "use_locking"
    value {
      b: true
    }
  }
  attr {
    key: "validate_shape"
    value {
      b: true
    }
  }
}
node {
  name: "global/rnn/basic_lstm_cell/kernel/read"
  op: "Identity"
  input: "global/rnn/basic_lstm_cell/kernel"
  device: "/job:thread/task:0/device:CPU:0"
  attr {
    key: "T"
    value {
      type: DT_FLOAT
    }
  }
  attr {
    key: "_output_shapes"
    value {
      list {
        shape {
          dim {
            size: 511
          }
          dim {
            size: 1024
          }
        }
      }
    }
  }
}
node {
  name: "global/rnn/basic_lstm_cell/bias/Initializer/zeros/shape_as_tensor"
  op: "Const"
  attr {
    key: "_class"
    value {
      list {
        s: "loc:@global/rnn/basic_lstm_cell/bias"
      }
    }
  }
  attr {
    key: "_output_shapes"
    value {
      list {
        shape {
          dim {
            size: 1
          }
        }
      }
    }
  }
  attr {
    key: "dtype"
    value {
      type: DT_INT32
    }
  }
  attr {
    key: "value"
    value {
      tensor {
        dtype: DT_INT32
        tensor_shape {
          dim {
            size: 1
          }
        }
        int_val: 1024
      }
    }
  }
}
node {
  name: "global/rnn/basic_lstm_cell/bias/Initializer/zeros/Const"
  op: "Const"
  attr {
    key: "_class"
    value {
      list {
        s: "loc:@global/rnn/basic_lstm_cell/bias"
      }
    }
  }
  attr {
    key: "_output_shapes"
    value {
      list {
        shape {
        }
      }
    }
  }
  attr {
    key: "dtype"
    value {
      type: DT_FLOAT
    }
  }
  attr {
    key: "value"
    value {
      tensor {
        dtype: DT_FLOAT
        tensor_shape {
        }
        float_val: 0.0
      }
    }
  }
}
node {
  name: "global/rnn/basic_lstm_cell/bias/Initializer/zeros"
  op: "Fill"
  input: "global/rnn/basic_lstm_cell/bias/Initializer/zeros/shape_as_tensor"
  input: "global/rnn/basic_lstm_cell/bias/Initializer/zeros/Const"
  attr {
    key: "T"
    value {
      type: DT_FLOAT
    }
  }
  attr {
    key: "_class"
    value {
      list {
        s: "loc:@global/rnn/basic_lstm_cell/bias"
      }
    }
  }
  attr {
    key: "_output_shapes"
    value {
      list {
        shape {
          dim {
            size: 1024
          }
        }
      }
    }
  }
  attr {
    key: "index_type"
    value {
      type: DT_INT32
    }
  }
}
node {
  name: "global/rnn/basic_lstm_cell/bias"
  op: "VariableV2"
  device: "/job:master/task:0"
  attr {
    key: "_class"
    value {
      list {
        s: "loc:@global/rnn/basic_lstm_cell/bias"
      }
    }
  }
  attr {
    key: "_output_shapes"
    value {
      list {
        shape {
          dim {
            size: 1024
          }
        }
      }
    }
  }
  attr {
    key: "container"
    value {
      s: ""
    }
  }
  attr {
    key: "dtype"
    value {
      type: DT_FLOAT
    }
  }
  attr {
    key: "shape"
    value {
      shape {
        dim {
          size: 1024
        }
      }
    }
  }
  attr {
    key: "shared_name"
    value {
      s: ""
    }
  }
}
node {
  name: "global/rnn/basic_lstm_cell/bias/Assign"
  op: "Assign"
  input: "global/rnn/basic_lstm_cell/bias"
  input: "global/rnn/basic_lstm_cell/bias/Initializer/zeros"
  device: "/job:master/task:0"
  attr {
    key: "T"
    value {
      type: DT_FLOAT
    }
  }
  attr {
    key: "_class"
    value {
      list {
        s: "loc:@global/rnn/basic_lstm_cell/bias"
      }
    }
  }
  attr {
    key: "_output_shapes"
    value {
      list {
        shape {
          dim {
            size: 1024
          }
        }
      }
    }
  }
  attr {
    key: "use_locking"
    value {
      b: true
    }
  }
  attr {
    key: "validate_shape"
    value {
      b: true
    }
  }
}
node {
  name: "global/rnn/basic_lstm_cell/bias/read"
  op: "Identity"
  input: "global/rnn/basic_lstm_cell/bias"
  device: "/job:thread/task:0/device:CPU:0"
  attr {
    key: "T"
    value {
      type: DT_FLOAT
    }
  }
  attr {
    key: "_output_shapes"
    value {
      list {
        shape {
          dim {
            size: 1024
          }
        }
      }
    }
  }
}
node {
  name: "global/LSTM_Layer/rnn/while/basic_lstm_cell/Const"
  op: "Const"
  input: "^global/LSTM_Layer/rnn/while/Identity"
  device: "/job:thread/task:0/device:CPU:0"
  attr {
    key: "_output_shapes"
    value {
      list {
        shape {
        }
      }
    }
  }
  attr {
    key: "dtype"
    value {
      type: DT_INT32
    }
  }
  attr {
    key: "value"
    value {
      tensor {
        dtype: DT_INT32
        tensor_shape {
        }
        int_val: 1
      }
    }
  }
}
node {
  name: "global/LSTM_Layer/rnn/while/basic_lstm_cell/concat/axis"
  op: "Const"
  input: "^global/LSTM_Layer/rnn/while/Identity"
  device: "/job:thread/task:0/device:CPU:0"
  attr {
    key: "_output_shapes"
    value {
      list {
        shape {
        }
      }
    }
  }
  attr {
    key: "dtype"
    value {
      type: DT_INT32
    }
  }
  attr {
    key: "value"
    value {
      tensor {
        dtype: DT_INT32
        tensor_shape {
        }
        int_val: 1
      }
    }
  }
}
node {
  name: "global/LSTM_Layer/rnn/while/basic_lstm_cell/concat"
  op: "ConcatV2"
  input: "global/LSTM_Layer/rnn/while/TensorArrayReadV3"
  input: "global/LSTM_Layer/rnn/while/Identity_4"
  input: "global/LSTM_Layer/rnn/while/basic_lstm_cell/concat/axis"
  device: "/job:thread/task:0/device:CPU:0"
  attr {
    key: "N"
    value {
      i: 2
    }
  }
  attr {
    key: "T"
    value {
      type: DT_FLOAT
    }
  }
  attr {
    key: "Tidx"
    value {
      type: DT_INT32
    }
  }
  attr {
    key: "_output_shapes"
    value {
      list {
        shape {
          dim {
            size: 1
          }
          dim {
            size: 511
          }
        }
      }
    }
  }
}
node {
  name: "global/LSTM_Layer/rnn/while/basic_lstm_cell/MatMul"
  op: "MatMul"
  input: "global/LSTM_Layer/rnn/while/basic_lstm_cell/concat"
  input: "global/LSTM_Layer/rnn/while/basic_lstm_cell/MatMul/Enter"
  device: "/job:thread/task:0/device:CPU:0"
  attr {
    key: "T"
    value {
      type: DT_FLOAT
    }
  }
  attr {
    key: "_output_shapes"
    value {
      list {
        shape {
          dim {
            size: 1
          }
          dim {
            size: 1024
          }
        }
      }
    }
  }
  attr {
    key: "transpose_a"
    value {
      b: false
    }
  }
  attr {
    key: "transpose_b"
    value {
      b: false
    }
  }
}
node {
  name: "global/LSTM_Layer/rnn/while/basic_lstm_cell/MatMul/Enter"
  op: "Enter"
  input: "global/rnn/basic_lstm_cell/kernel/read"
  device: "/job:thread/task:0/device:CPU:0"
  attr {
    key: "T"
    value {
      type: DT_FLOAT
    }
  }
  attr {
    key: "_output_shapes"
    value {
      list {
        shape {
          dim {
            size: 511
          }
          dim {
            size: 1024
          }
        }
      }
    }
  }
  attr {
    key: "frame_name"
    value {
      s: "global/LSTM_Layer/rnn/while/while_context"
    }
  }
  attr {
    key: "is_constant"
    value {
      b: true
    }
  }
  attr {
    key: "parallel_iterations"
    value {
      i: 32
    }
  }
}
node {
  name: "global/LSTM_Layer/rnn/while/basic_lstm_cell/BiasAdd"
  op: "BiasAdd"
  input: "global/LSTM_Layer/rnn/while/basic_lstm_cell/MatMul"
  input: "global/LSTM_Layer/rnn/while/basic_lstm_cell/BiasAdd/Enter"
  device: "/job:thread/task:0/device:CPU:0"
  attr {
    key: "T"
    value {
      type: DT_FLOAT
    }
  }
  attr {
    key: "_output_shapes"
    value {
      list {
        shape {
          dim {
            size: 1
          }
          dim {
            size: 1024
          }
        }
      }
    }
  }
  attr {
    key: "data_format"
    value {
      s: "NHWC"
    }
  }
}
node {
  name: "global/LSTM_Layer/rnn/while/basic_lstm_cell/BiasAdd/Enter"
  op: "Enter"
  input: "global/rnn/basic_lstm_cell/bias/read"
  device: "/job:thread/task:0/device:CPU:0"
  attr {
    key: "T"
    value {
      type: DT_FLOAT
    }
  }
  attr {
    key: "_output_shapes"
    value {
      list {
        shape {
          dim {
            size: 1024
          }
        }
      }
    }
  }
  attr {
    key: "frame_name"
    value {
      s: "global/LSTM_Layer/rnn/while/while_context"
    }
  }
  attr {
    key: "is_constant"
    value {
      b: true
    }
  }
  attr {
    key: "parallel_iterations"
    value {
      i: 32
    }
  }
}
node {
  name: "global/LSTM_Layer/rnn/while/basic_lstm_cell/Const_1"
  op: "Const"
  input: "^global/LSTM_Layer/rnn/while/Identity"
  device: "/job:thread/task:0/device:CPU:0"
  attr {
    key: "_output_shapes"
    value {
      list {
        shape {
        }
      }
    }
  }
  attr {
    key: "dtype"
    value {
      type: DT_INT32
    }
  }
  attr {
    key: "value"
    value {
      tensor {
        dtype: DT_INT32
        tensor_shape {
        }
        int_val: 4
      }
    }
  }
}
node {
  name: "global/LSTM_Layer/rnn/while/basic_lstm_cell/split"
  op: "Split"
  input: "global/LSTM_Layer/rnn/while/basic_lstm_cell/Const"
  input: "global/LSTM_Layer/rnn/while/basic_lstm_cell/BiasAdd"
  device: "/job:thread/task:0/device:CPU:0"
  attr {
    key: "T"
    value {
      type: DT_FLOAT
    }
  }
  attr {
    key: "_output_shapes"
    value {
      list {
        shape {
          dim {
            size: 1
          }
          dim {
            size: 256
          }
        }
        shape {
          dim {
            size: 1
          }
          dim {
            size: 256
          }
        }
        shape {
          dim {
            size: 1
          }
          dim {
            size: 256
          }
        }
        shape {
          dim {
            size: 1
          }
          dim {
            size: 256
          }
        }
      }
    }
  }
  attr {
    key: "num_split"
    value {
      i: 4
    }
  }
}
node {
  name: "global/LSTM_Layer/rnn/while/basic_lstm_cell/Const_2"
  op: "Const"
  input: "^global/LSTM_Layer/rnn/while/Identity"
  device: "/job:thread/task:0/device:CPU:0"
  attr {
    key: "_output_shapes"
    value {
      list {
        shape {
        }
      }
    }
  }
  attr {
    key: "dtype"
    value {
      type: DT_FLOAT
    }
  }
  attr {
    key: "value"
    value {
      tensor {
        dtype: DT_FLOAT
        tensor_shape {
        }
        float_val: 1.0
      }
    }
  }
}
node {
  name: "global/LSTM_Layer/rnn/while/basic_lstm_cell/Add"
  op: "Add"
  input: "global/LSTM_Layer/rnn/while/basic_lstm_cell/split:2"
  input: "global/LSTM_Layer/rnn/while/basic_lstm_cell/Const_2"
  device: "/job:thread/task:0/device:CPU:0"
  attr {
    key: "T"
    value {
      type: DT_FLOAT
    }
  }
  attr {
    key: "_output_shapes"
    value {
      list {
        shape {
          dim {
            size: 1
          }
          dim {
            size: 256
          }
        }
      }
    }
  }
}
node {
  name: "global/LSTM_Layer/rnn/while/basic_lstm_cell/Sigmoid"
  op: "Sigmoid"
  input: "global/LSTM_Layer/rnn/while/basic_lstm_cell/Add"
  device: "/job:thread/task:0/device:CPU:0"
  attr {
    key: "T"
    value {
      type: DT_FLOAT
    }
  }
  attr {
    key: "_output_shapes"
    value {
      list {
        shape {
          dim {
            size: 1
          }
          dim {
            size: 256
          }
        }
      }
    }
  }
}
node {
  name: "global/LSTM_Layer/rnn/while/basic_lstm_cell/Mul"
  op: "Mul"
  input: "global/LSTM_Layer/rnn/while/Identity_3"
  input: "global/LSTM_Layer/rnn/while/basic_lstm_cell/Sigmoid"
  device: "/job:thread/task:0/device:CPU:0"
  attr {
    key: "T"
    value {
      type: DT_FLOAT
    }
  }
  attr {
    key: "_output_shapes"
    value {
      list {
        shape {
          dim {
            size: 1
          }
          dim {
            size: 256
          }
        }
      }
    }
  }
}
node {
  name: "global/LSTM_Layer/rnn/while/basic_lstm_cell/Sigmoid_1"
  op: "Sigmoid"
  input: "global/LSTM_Layer/rnn/while/basic_lstm_cell/split"
  device: "/job:thread/task:0/device:CPU:0"
  attr {
    key: "T"
    value {
      type: DT_FLOAT
    }
  }
  attr {
    key: "_output_shapes"
    value {
      list {
        shape {
          dim {
            size: 1
          }
          dim {
            size: 256
          }
        }
      }
    }
  }
}
node {
  name: "global/LSTM_Layer/rnn/while/basic_lstm_cell/Tanh"
  op: "Tanh"
  input: "global/LSTM_Layer/rnn/while/basic_lstm_cell/split:1"
  device: "/job:thread/task:0/device:CPU:0"
  attr {
    key: "T"
    value {
      type: DT_FLOAT
    }
  }
  attr {
    key: "_output_shapes"
    value {
      list {
        shape {
          dim {
            size: 1
          }
          dim {
            size: 256
          }
        }
      }
    }
  }
}
node {
  name: "global/LSTM_Layer/rnn/while/basic_lstm_cell/Mul_1"
  op: "Mul"
  input: "global/LSTM_Layer/rnn/while/basic_lstm_cell/Sigmoid_1"
  input: "global/LSTM_Layer/rnn/while/basic_lstm_cell/Tanh"
  device: "/job:thread/task:0/device:CPU:0"
  attr {
    key: "T"
    value {
      type: DT_FLOAT
    }
  }
  attr {
    key: "_output_shapes"
    value {
      list {
        shape {
          dim {
            size: 1
          }
          dim {
            size: 256
          }
        }
      }
    }
  }
}
node {
  name: "global/LSTM_Layer/rnn/while/basic_lstm_cell/Add_1"
  op: "Add"
  input: "global/LSTM_Layer/rnn/while/basic_lstm_cell/Mul"
  input: "global/LSTM_Layer/rnn/while/basic_lstm_cell/Mul_1"
  device: "/job:thread/task:0/device:CPU:0"
  attr {
    key: "T"
    value {
      type: DT_FLOAT
    }
  }
  attr {
    key: "_output_shapes"
    value {
      list {
        shape {
          dim {
            size: 1
          }
          dim {
            size: 256
          }
        }
      }
    }
  }
}
node {
  name: "global/LSTM_Layer/rnn/while/basic_lstm_cell/Tanh_1"
  op: "Tanh"
  input: "global/LSTM_Layer/rnn/while/basic_lstm_cell/Add_1"
  device: "/job:thread/task:0/device:CPU:0"
  attr {
    key: "T"
    value {
      type: DT_FLOAT
    }
  }
  attr {
    key: "_output_shapes"
    value {
      list {
        shape {
          dim {
            size: 1
          }
          dim {
            size: 256
          }
        }
      }
    }
  }
}
node {
  name: "global/LSTM_Layer/rnn/while/basic_lstm_cell/Sigmoid_2"
  op: "Sigmoid"
  input: "global/LSTM_Layer/rnn/while/basic_lstm_cell/split:3"
  device: "/job:thread/task:0/device:CPU:0"
  attr {
    key: "T"
    value {
      type: DT_FLOAT
    }
  }
  attr {
    key: "_output_shapes"
    value {
      list {
        shape {
          dim {
            size: 1
          }
          dim {
            size: 256
          }
        }
      }
    }
  }
}
node {
  name: "global/LSTM_Layer/rnn/while/basic_lstm_cell/Mul_2"
  op: "Mul"
  input: "global/LSTM_Layer/rnn/while/basic_lstm_cell/Tanh_1"
  input: "global/LSTM_Layer/rnn/while/basic_lstm_cell/Sigmoid_2"
  device: "/job:thread/task:0/device:CPU:0"
  attr {
    key: "T"
    value {
      type: DT_FLOAT
    }
  }
  attr {
    key: "_output_shapes"
    value {
      list {
        shape {
          dim {
            size: 1
          }
          dim {
            size: 256
          }
        }
      }
    }
  }
}
node {
  name: "global/LSTM_Layer/rnn/while/Select"
  op: "Select"
  input: "global/LSTM_Layer/rnn/while/GreaterEqual"
  input: "global/LSTM_Layer/rnn/while/Select/Enter"
  input: "global/LSTM_Layer/rnn/while/basic_lstm_cell/Mul_2"
  device: "/job:thread/task:0/device:CPU:0"
  attr {
    key: "T"
    value {
      type: DT_FLOAT
    }
  }
  attr {
    key: "_class"
    value {
      list {
        s: "loc:@global/LSTM_Layer/rnn/while/basic_lstm_cell/Mul_2"
      }
    }
  }
  attr {
    key: "_output_shapes"
    value {
      list {
        shape {
          dim {
            size: 1
          }
          dim {
            size: 256
          }
        }
      }
    }
  }
}
node {
  name: "global/LSTM_Layer/rnn/while/Select/Enter"
  op: "Enter"
  input: "global/LSTM_Layer/rnn/zeros"
  device: "/job:thread/task:0/device:CPU:0"
  attr {
    key: "T"
    value {
      type: DT_FLOAT
    }
  }
  attr {
    key: "_class"
    value {
      list {
        s: "loc:@global/LSTM_Layer/rnn/while/basic_lstm_cell/Mul_2"
      }
    }
  }
  attr {
    key: "_output_shapes"
    value {
      list {
        shape {
          dim {
            size: 1
          }
          dim {
            size: 256
          }
        }
      }
    }
  }
  attr {
    key: "frame_name"
    value {
      s: "global/LSTM_Layer/rnn/while/while_context"
    }
  }
  attr {
    key: "is_constant"
    value {
      b: true
    }
  }
  attr {
    key: "parallel_iterations"
    value {
      i: 32
    }
  }
}
node {
  name: "global/LSTM_Layer/rnn/while/Select_1"
  op: "Select"
  input: "global/LSTM_Layer/rnn/while/GreaterEqual"
  input: "global/LSTM_Layer/rnn/while/Identity_3"
  input: "global/LSTM_Layer/rnn/while/basic_lstm_cell/Add_1"
  device: "/job:thread/task:0/device:CPU:0"
  attr {
    key: "T"
    value {
      type: DT_FLOAT
    }
  }
  attr {
    key: "_class"
    value {
      list {
        s: "loc:@global/LSTM_Layer/rnn/while/basic_lstm_cell/Add_1"
      }
    }
  }
  attr {
    key: "_output_shapes"
    value {
      list {
        shape {
          dim {
            size: 1
          }
          dim {
            size: 256
          }
        }
      }
    }
  }
}
node {
  name: "global/LSTM_Layer/rnn/while/Select_2"
  op: "Select"
  input: "global/LSTM_Layer/rnn/while/GreaterEqual"
  input: "global/LSTM_Layer/rnn/while/Identity_4"
  input: "global/LSTM_Layer/rnn/while/basic_lstm_cell/Mul_2"
  device: "/job:thread/task:0/device:CPU:0"
  attr {
    key: "T"
    value {
      type: DT_FLOAT
    }
  }
  attr {
    key: "_class"
    value {
      list {
        s: "loc:@global/LSTM_Layer/rnn/while/basic_lstm_cell/Mul_2"
      }
    }
  }
  attr {
    key: "_output_shapes"
    value {
      list {
        shape {
          dim {
            size: 1
          }
          dim {
            size: 256
          }
        }
      }
    }
  }
}
node {
  name: "global/LSTM_Layer/rnn/while/TensorArrayWrite/TensorArrayWriteV3"
  op: "TensorArrayWriteV3"
  input: "global/LSTM_Layer/rnn/while/TensorArrayWrite/TensorArrayWriteV3/Enter"
  input: "global/LSTM_Layer/rnn/while/Identity_1"
  input: "global/LSTM_Layer/rnn/while/Select"
  input: "global/LSTM_Layer/rnn/while/Identity_2"
  device: "/job:thread/task:0/device:CPU:0"
  attr {
    key: "T"
    value {
      type: DT_FLOAT
    }
  }
  attr {
    key: "_class"
    value {
      list {
        s: "loc:@global/LSTM_Layer/rnn/while/basic_lstm_cell/Mul_2"
      }
    }
  }
  attr {
    key: "_output_shapes"
    value {
      list {
        shape {
        }
      }
    }
  }
}
node {
  name: "global/LSTM_Layer/rnn/while/TensorArrayWrite/TensorArrayWriteV3/Enter"
  op: "Enter"
  input: "global/LSTM_Layer/rnn/TensorArray"
  device: "/job:thread/task:0/device:CPU:0"
  attr {
    key: "T"
    value {
      type: DT_RESOURCE
    }
  }
  attr {
    key: "_class"
    value {
      list {
        s: "loc:@global/LSTM_Layer/rnn/while/basic_lstm_cell/Mul_2"
      }
    }
  }
  attr {
    key: "_output_shapes"
    value {
      list {
        shape {
          dim {
            size: 2
          }
        }
      }
    }
  }
  attr {
    key: "frame_name"
    value {
      s: "global/LSTM_Layer/rnn/while/while_context"
    }
  }
  attr {
    key: "is_constant"
    value {
      b: true
    }
  }
  attr {
    key: "parallel_iterations"
    value {
      i: 32
    }
  }
}
node {
  name: "global/LSTM_Layer/rnn/while/add_1/y"
  op: "Const"
  input: "^global/LSTM_Layer/rnn/while/Identity"
  device: "/job:thread/task:0/device:CPU:0"
  attr {
    key: "_output_shapes"
    value {
      list {
        shape {
        }
      }
    }
  }
  attr {
    key: "dtype"
    value {
      type: DT_INT32
    }
  }
  attr {
    key: "value"
    value {
      tensor {
        dtype: DT_INT32
        tensor_shape {
        }
        int_val: 1
      }
    }
  }
}
node {
  name: "global/LSTM_Layer/rnn/while/add_1"
  op: "AddV2"
  input: "global/LSTM_Layer/rnn/while/Identity_1"
  input: "global/LSTM_Layer/rnn/while/add_1/y"
  device: "/job:thread/task:0/device:CPU:0"
  attr {
    key: "T"
    value {
      type: DT_INT32
    }
  }
  attr {
    key: "_output_shapes"
    value {
      list {
        shape {
        }
      }
    }
  }
}
node {
  name: "global/LSTM_Layer/rnn/while/NextIteration"
  op: "NextIteration"
  input: "global/LSTM_Layer/rnn/while/add"
  device: "/job:thread/task:0/device:CPU:0"
  attr {
    key: "T"
    value {
      type: DT_INT32
    }
  }
  attr {
    key: "_output_shapes"
    value {
      list {
        shape {
        }
      }
    }
  }
}
node {
  name: "global/LSTM_Layer/rnn/while/NextIteration_1"
  op: "NextIteration"
  input: "global/LSTM_Layer/rnn/while/add_1"
  device: "/job:thread/task:0/device:CPU:0"
  attr {
    key: "T"
    value {
      type: DT_INT32
    }
  }
  attr {
    key: "_output_shapes"
    value {
      list {
        shape {
        }
      }
    }
  }
}
node {
  name: "global/LSTM_Layer/rnn/while/NextIteration_2"
  op: "NextIteration"
  input: "global/LSTM_Layer/rnn/while/TensorArrayWrite/TensorArrayWriteV3"
  device: "/job:thread/task:0/device:CPU:0"
  attr {
    key: "T"
    value {
      type: DT_FLOAT
    }
  }
  attr {
    key: "_output_shapes"
    value {
      list {
        shape {
        }
      }
    }
  }
}
node {
  name: "global/LSTM_Layer/rnn/while/NextIteration_3"
  op: "NextIteration"
  input: "global/LSTM_Layer/rnn/while/Select_1"
  device: "/job:thread/task:0/device:CPU:0"
  attr {
    key: "T"
    value {
      type: DT_FLOAT
    }
  }
  attr {
    key: "_output_shapes"
    value {
      list {
        shape {
          dim {
            size: 1
          }
          dim {
            size: 256
          }
        }
      }
    }
  }
}
node {
  name: "global/LSTM_Layer/rnn/while/NextIteration_4"
  op: "NextIteration"
  input: "global/LSTM_Layer/rnn/while/Select_2"
  device: "/job:thread/task:0/device:CPU:0"
  attr {
    key: "T"
    value {
      type: DT_FLOAT
    }
  }
  attr {
    key: "_output_shapes"
    value {
      list {
        shape {
          dim {
            size: 1
          }
          dim {
            size: 256
          }
        }
      }
    }
  }
}
node {
  name: "global/LSTM_Layer/rnn/while/Exit"
  op: "Exit"
  input: "global/LSTM_Layer/rnn/while/Switch"
  device: "/job:thread/task:0/device:CPU:0"
  attr {
    key: "T"
    value {
      type: DT_INT32
    }
  }
  attr {
    key: "_output_shapes"
    value {
      list {
        shape {
        }
      }
    }
  }
}
node {
  name: "global/LSTM_Layer/rnn/while/Exit_1"
  op: "Exit"
  input: "global/LSTM_Layer/rnn/while/Switch_1"
  device: "/job:thread/task:0/device:CPU:0"
  attr {
    key: "T"
    value {
      type: DT_INT32
    }
  }
  attr {
    key: "_output_shapes"
    value {
      list {
        shape {
        }
      }
    }
  }
}
node {
  name: "global/LSTM_Layer/rnn/while/Exit_2"
  op: "Exit"
  input: "global/LSTM_Layer/rnn/while/Switch_2"
  device: "/job:thread/task:0/device:CPU:0"
  attr {
    key: "T"
    value {
      type: DT_FLOAT
    }
  }
  attr {
    key: "_output_shapes"
    value {
      list {
        shape {
        }
      }
    }
  }
}
node {
  name: "global/LSTM_Layer/rnn/while/Exit_3"
  op: "Exit"
  input: "global/LSTM_Layer/rnn/while/Switch_3"
  device: "/job:thread/task:0/device:CPU:0"
  attr {
    key: "T"
    value {
      type: DT_FLOAT
    }
  }
  attr {
    key: "_output_shapes"
    value {
      list {
        shape {
          dim {
            size: 1
          }
          dim {
            size: 256
          }
        }
      }
    }
  }
}
node {
  name: "global/LSTM_Layer/rnn/while/Exit_4"
  op: "Exit"
  input: "global/LSTM_Layer/rnn/while/Switch_4"
  device: "/job:thread/task:0/device:CPU:0"
  attr {
    key: "T"
    value {
      type: DT_FLOAT
    }
  }
  attr {
    key: "_output_shapes"
    value {
      list {
        shape {
          dim {
            size: 1
          }
          dim {
            size: 256
          }
        }
      }
    }
  }
}
node {
  name: "global/LSTM_Layer/rnn/TensorArrayStack/TensorArraySizeV3"
  op: "TensorArraySizeV3"
  input: "global/LSTM_Layer/rnn/TensorArray"
  input: "global/LSTM_Layer/rnn/while/Exit_2"
  attr {
    key: "_class"
    value {
      list {
        s: "loc:@global/LSTM_Layer/rnn/TensorArray"
      }
    }
  }
  attr {
    key: "_output_shapes"
    value {
      list {
        shape {
        }
      }
    }
  }
}
node {
  name: "global/LSTM_Layer/rnn/TensorArrayStack/range/start"
  op: "Const"
  attr {
    key: "_class"
    value {
      list {
        s: "loc:@global/LSTM_Layer/rnn/TensorArray"
      }
    }
  }
  attr {
    key: "_output_shapes"
    value {
      list {
        shape {
        }
      }
    }
  }
  attr {
    key: "dtype"
    value {
      type: DT_INT32
    }
  }
  attr {
    key: "value"
    value {
      tensor {
        dtype: DT_INT32
        tensor_shape {
        }
        int_val: 0
      }
    }
  }
}
node {
  name: "global/LSTM_Layer/rnn/TensorArrayStack/range/delta"
  op: "Const"
  attr {
    key: "_class"
    value {
      list {
        s: "loc:@global/LSTM_Layer/rnn/TensorArray"
      }
    }
  }
  attr {
    key: "_output_shapes"
    value {
      list {
        shape {
        }
      }
    }
  }
  attr {
    key: "dtype"
    value {
      type: DT_INT32
    }
  }
  attr {
    key: "value"
    value {
      tensor {
        dtype: DT_INT32
        tensor_shape {
        }
        int_val: 1
      }
    }
  }
}
node {
  name: "global/LSTM_Layer/rnn/TensorArrayStack/range"
  op: "Range"
  input: "global/LSTM_Layer/rnn/TensorArrayStack/range/start"
  input: "global/LSTM_Layer/rnn/TensorArrayStack/TensorArraySizeV3"
  input: "global/LSTM_Layer/rnn/TensorArrayStack/range/delta"
  attr {
    key: "Tidx"
    value {
      type: DT_INT32
    }
  }
  attr {
    key: "_class"
    value {
      list {
        s: "loc:@global/LSTM_Layer/rnn/TensorArray"
      }
    }
  }
  attr {
    key: "_output_shapes"
    value {
      list {
        shape {
          dim {
            size: -1
          }
        }
      }
    }
  }
}
node {
  name: "global/LSTM_Layer/rnn/TensorArrayStack/TensorArrayGatherV3"
  op: "TensorArrayGatherV3"
  input: "global/LSTM_Layer/rnn/TensorArray"
  input: "global/LSTM_Layer/rnn/TensorArrayStack/range"
  input: "global/LSTM_Layer/rnn/while/Exit_2"
  attr {
    key: "_class"
    value {
      list {
        s: "loc:@global/LSTM_Layer/rnn/TensorArray"
      }
    }
  }
  attr {
    key: "_output_shapes"
    value {
      list {
        shape {
          dim {
            size: 1
          }
          dim {
            size: 1
          }
          dim {
            size: 256
          }
        }
      }
    }
  }
  attr {
    key: "dtype"
    value {
      type: DT_FLOAT
    }
  }
  attr {
    key: "element_shape"
    value {
      shape {
        dim {
          size: 1
        }
        dim {
          size: 256
        }
      }
    }
  }
}
node {
  name: "global/LSTM_Layer/rnn/Const_5"
  op: "Const"
  device: "/job:thread/task:0/device:CPU:0"
  attr {
    key: "_output_shapes"
    value {
      list {
        shape {
          dim {
            size: 2
          }
        }
      }
    }
  }
  attr {
    key: "dtype"
    value {
      type: DT_INT32
    }
  }
  attr {
    key: "value"
    value {
      tensor {
        dtype: DT_INT32
        tensor_shape {
          dim {
            size: 2
          }
        }
        tensor_content: "\001\000\000\000\001\000\000\000"
      }
    }
  }
}
node {
  name: "global/LSTM_Layer/rnn/Const_6"
  op: "Const"
  device: "/job:thread/task:0/device:CPU:0"
  attr {
    key: "_output_shapes"
    value {
      list {
        shape {
          dim {
            size: 1
          }
        }
      }
    }
  }
  attr {
    key: "dtype"
    value {
      type: DT_INT32
    }
  }
  attr {
    key: "value"
    value {
      tensor {
        dtype: DT_INT32
        tensor_shape {
          dim {
            size: 1
          }
        }
        int_val: 256
      }
    }
  }
}
node {
  name: "global/LSTM_Layer/rnn/Rank_1"
  op: "Const"
  device: "/job:thread/task:0/device:CPU:0"
  attr {
    key: "_output_shapes"
    value {
      list {
        shape {
        }
      }
    }
  }
  attr {
    key: "dtype"
    value {
      type: DT_INT32
    }
  }
  attr {
    key: "value"
    value {
      tensor {
        dtype: DT_INT32
        tensor_shape {
        }
        int_val: 3
      }
    }
  }
}
node {
  name: "global/LSTM_Layer/rnn/range_1/start"
  op: "Const"
  device: "/job:thread/task:0/device:CPU:0"
  attr {
    key: "_output_shapes"
    value {
      list {
        shape {
        }
      }
    }
  }
  attr {
    key: "dtype"
    value {
      type: DT_INT32
    }
  }
  attr {
    key: "value"
    value {
      tensor {
        dtype: DT_INT32
        tensor_shape {
        }
        int_val: 2
      }
    }
  }
}
node {
  name: "global/LSTM_Layer/rnn/range_1/delta"
  op: "Const"
  device: "/job:thread/task:0/device:CPU:0"
  attr {
    key: "_output_shapes"
    value {
      list {
        shape {
        }
      }
    }
  }
  attr {
    key: "dtype"
    value {
      type: DT_INT32
    }
  }
  attr {
    key: "value"
    value {
      tensor {
        dtype: DT_INT32
        tensor_shape {
        }
        int_val: 1
      }
    }
  }
}
node {
  name: "global/LSTM_Layer/rnn/range_1"
  op: "Range"
  input: "global/LSTM_Layer/rnn/range_1/start"
  input: "global/LSTM_Layer/rnn/Rank_1"
  input: "global/LSTM_Layer/rnn/range_1/delta"
  device: "/job:thread/task:0/device:CPU:0"
  attr {
    key: "Tidx"
    value {
      type: DT_INT32
    }
  }
  attr {
    key: "_output_shapes"
    value {
      list {
        shape {
          dim {
            size: 1
          }
        }
      }
    }
  }
}
node {
  name: "global/LSTM_Layer/rnn/concat_2/values_0"
  op: "Const"
  device: "/job:thread/task:0/device:CPU:0"
  attr {
    key: "_output_shapes"
    value {
      list {
        shape {
          dim {
            size: 2
          }
        }
      }
    }
  }
  attr {
    key: "dtype"
    value {
      type: DT_INT32
    }
  }
  attr {
    key: "value"
    value {
      tensor {
        dtype: DT_INT32
        tensor_shape {
          dim {
            size: 2
          }
        }
        tensor_content: "\001\000\000\000\000\000\000\000"
      }
    }
  }
}
node {
  name: "global/LSTM_Layer/rnn/concat_2/axis"
  op: "Const"
  device: "/job:thread/task:0/device:CPU:0"
  attr {
    key: "_output_shapes"
    value {
      list {
        shape {
        }
      }
    }
  }
  attr {
    key: "dtype"
    value {
      type: DT_INT32
    }
  }
  attr {
    key: "value"
    value {
      tensor {
        dtype: DT_INT32
        tensor_shape {
        }
        int_val: 0
      }
    }
  }
}
node {
  name: "global/LSTM_Layer/rnn/concat_2"
  op: "ConcatV2"
  input: "global/LSTM_Layer/rnn/concat_2/values_0"
  input: "global/LSTM_Layer/rnn/range_1"
  input: "global/LSTM_Layer/rnn/concat_2/axis"
  device: "/job:thread/task:0/device:CPU:0"
  attr {
    key: "N"
    value {
      i: 2
    }
  }
  attr {
    key: "T"
    value {
      type: DT_INT32
    }
  }
  attr {
    key: "Tidx"
    value {
      type: DT_INT32
    }
  }
  attr {
    key: "_output_shapes"
    value {
      list {
        shape {
          dim {
            size: 3
          }
        }
      }
    }
  }
}
node {
  name: "global/LSTM_Layer/rnn/transpose_1"
  op: "Transpose"
  input: "global/LSTM_Layer/rnn/TensorArrayStack/TensorArrayGatherV3"
  input: "global/LSTM_Layer/rnn/concat_2"
  device: "/job:thread/task:0/device:CPU:0"
  attr {
    key: "T"
    value {
      type: DT_FLOAT
    }
  }
  attr {
    key: "Tperm"
    value {
      type: DT_INT32
    }
  }
  attr {
    key: "_output_shapes"
    value {
      list {
        shape {
          dim {
            size: 1
          }
          dim {
            size: 1
          }
          dim {
            size: 256
          }
        }
      }
    }
  }
}
node {
  name: "global/LSTM_Layer/Squeeze"
  op: "Squeeze"
  input: "global/LSTM_Layer/rnn/transpose_1"
  device: "/job:thread/task:0/device:CPU:0"
  attr {
    key: "T"
    value {
      type: DT_FLOAT
    }
  }
  attr {
    key: "_output_shapes"
    value {
      list {
        shape {
          dim {
            size: 1
          }
          dim {
            size: 256
          }
        }
      }
    }
  }
  attr {
    key: "squeeze_dims"
    value {
      list {
        i: 0
      }
    }
  }
}
node {
  name: "global/random_uniform/shape"
  op: "Const"
  device: "/job:thread/task:0/device:CPU:0"
  attr {
    key: "_output_shapes"
    value {
      list {
        shape {
          dim {
            size: 2
          }
        }
      }
    }
  }
  attr {
    key: "dtype"
    value {
      type: DT_INT32
    }
  }
  attr {
    key: "value"
    value {
      tensor {
        dtype: DT_INT32
        tensor_shape {
          dim {
            size: 2
          }
        }
        tensor_content: "\000\001\000\000\007\000\000\000"
      }
    }
  }
}
node {
  name: "global/random_uniform/min"
  op: "Const"
  device: "/job:thread/task:0/device:CPU:0"
  attr {
    key: "_output_shapes"
    value {
      list {
        shape {
        }
      }
    }
  }
  attr {
    key: "dtype"
    value {
      type: DT_FLOAT
    }
  }
  attr {
    key: "value"
    value {
      tensor {
        dtype: DT_FLOAT
        tensor_shape {
        }
        float_val: -0.15104201436042786
      }
    }
  }
}
node {
  name: "global/random_uniform/max"
  op: "Const"
  device: "/job:thread/task:0/device:CPU:0"
  attr {
    key: "_output_shapes"
    value {
      list {
        shape {
        }
      }
    }
  }
  attr {
    key: "dtype"
    value {
      type: DT_FLOAT
    }
  }
  attr {
    key: "value"
    value {
      tensor {
        dtype: DT_FLOAT
        tensor_shape {
        }
        float_val: 0.15104201436042786
      }
    }
  }
}
node {
  name: "global/random_uniform/RandomUniform"
  op: "RandomUniform"
  input: "global/random_uniform/shape"
  device: "/job:thread/task:0/device:CPU:0"
  attr {
    key: "T"
    value {
      type: DT_INT32
    }
  }
  attr {
    key: "_output_shapes"
    value {
      list {
        shape {
          dim {
            size: 256
          }
          dim {
            size: 7
          }
        }
      }
    }
  }
  attr {
    key: "dtype"
    value {
      type: DT_FLOAT
    }
  }
  attr {
    key: "seed"
    value {
      i: 0
    }
  }
  attr {
    key: "seed2"
    value {
      i: 0
    }
  }
}
node {
  name: "global/random_uniform/sub"
  op: "Sub"
  input: "global/random_uniform/max"
  input: "global/random_uniform/min"
  device: "/job:thread/task:0/device:CPU:0"
  attr {
    key: "T"
    value {
      type: DT_FLOAT
    }
  }
  attr {
    key: "_output_shapes"
    value {
      list {
        shape {
        }
      }
    }
  }
}
node {
  name: "global/random_uniform/mul"
  op: "Mul"
  input: "global/random_uniform/RandomUniform"
  input: "global/random_uniform/sub"
  device: "/job:thread/task:0/device:CPU:0"
  attr {
    key: "T"
    value {
      type: DT_FLOAT
    }
  }
  attr {
    key: "_output_shapes"
    value {
      list {
        shape {
          dim {
            size: 256
          }
          dim {
            size: 7
          }
        }
      }
    }
  }
}
node {
  name: "global/random_uniform"
  op: "Add"
  input: "global/random_uniform/mul"
  input: "global/random_uniform/min"
  device: "/job:thread/task:0/device:CPU:0"
  attr {
    key: "T"
    value {
      type: DT_FLOAT
    }
  }
  attr {
    key: "_output_shapes"
    value {
      list {
        shape {
          dim {
            size: 256
          }
          dim {
            size: 7
          }
        }
      }
    }
  }
}
node {
  name: "global/Weights"
  op: "VariableV2"
  device: "/job:master/task:0"
  attr {
    key: "_output_shapes"
    value {
      list {
        shape {
          dim {
            size: 256
          }
          dim {
            size: 7
          }
        }
      }
    }
  }
  attr {
    key: "container"
    value {
      s: ""
    }
  }
  attr {
    key: "dtype"
    value {
      type: DT_FLOAT
    }
  }
  attr {
    key: "shape"
    value {
      shape {
        dim {
          size: 256
        }
        dim {
          size: 7
        }
      }
    }
  }
  attr {
    key: "shared_name"
    value {
      s: ""
    }
  }
}
node {
  name: "global/Weights/Assign"
  op: "Assign"
  input: "global/Weights"
  input: "global/random_uniform"
  device: "/job:master/task:0"
  attr {
    key: "T"
    value {
      type: DT_FLOAT
    }
  }
  attr {
    key: "_class"
    value {
      list {
        s: "loc:@global/Weights"
      }
    }
  }
  attr {
    key: "_output_shapes"
    value {
      list {
        shape {
          dim {
            size: 256
          }
          dim {
            size: 7
          }
        }
      }
    }
  }
  attr {
    key: "use_locking"
    value {
      b: true
    }
  }
  attr {
    key: "validate_shape"
    value {
      b: true
    }
  }
}
node {
  name: "global/Weights/read"
  op: "Identity"
  input: "global/Weights"
  device: "/job:master/task:0"
  attr {
    key: "T"
    value {
      type: DT_FLOAT
    }
  }
  attr {
    key: "_class"
    value {
      list {
        s: "loc:@global/Weights"
      }
    }
  }
  attr {
    key: "_output_shapes"
    value {
      list {
        shape {
          dim {
            size: 256
          }
          dim {
            size: 7
          }
        }
      }
    }
  }
}
node {
  name: "global/Const"
  op: "Const"
  device: "/job:thread/task:0/device:CPU:0"
  attr {
    key: "_output_shapes"
    value {
      list {
        shape {
          dim {
            size: 7
          }
        }
      }
    }
  }
  attr {
    key: "dtype"
    value {
      type: DT_FLOAT
    }
  }
  attr {
    key: "value"
    value {
      tensor {
        dtype: DT_FLOAT
        tensor_shape {
          dim {
            size: 7
          }
        }
        float_val: 0.0
      }
    }
  }
}
node {
  name: "global/Bias"
  op: "VariableV2"
  device: "/job:master/task:0"
  attr {
    key: "_output_shapes"
    value {
      list {
        shape {
          dim {
            size: 7
          }
        }
      }
    }
  }
  attr {
    key: "container"
    value {
      s: ""
    }
  }
  attr {
    key: "dtype"
    value {
      type: DT_FLOAT
    }
  }
  attr {
    key: "shape"
    value {
      shape {
        dim {
          size: 7
        }
      }
    }
  }
  attr {
    key: "shared_name"
    value {
      s: ""
    }
  }
}
node {
  name: "global/Bias/Assign"
  op: "Assign"
  input: "global/Bias"
  input: "global/Const"
  device: "/job:master/task:0"
  attr {
    key: "T"
    value {
      type: DT_FLOAT
    }
  }
  attr {
    key: "_class"
    value {
      list {
        s: "loc:@global/Bias"
      }
    }
  }
  attr {
    key: "_output_shapes"
    value {
      list {
        shape {
          dim {
            size: 7
          }
        }
      }
    }
  }
  attr {
    key: "use_locking"
    value {
      b: true
    }
  }
  attr {
    key: "validate_shape"
    value {
      b: true
    }
  }
}
node {
  name: "global/Bias/read"
  op: "Identity"
  input: "global/Bias"
  device: "/job:master/task:0"
  attr {
    key: "T"
    value {
      type: DT_FLOAT
    }
  }
  attr {
    key: "_class"
    value {
      list {
        s: "loc:@global/Bias"
      }
    }
  }
  attr {
    key: "_output_shapes"
    value {
      list {
        shape {
          dim {
            size: 7
          }
        }
      }
    }
  }
}
node {
  name: "global/MatMul"
  op: "MatMul"
  input: "global/LSTM_Layer/Squeeze"
  input: "global/Weights/read"
  device: "/job:thread/task:0/device:CPU:0"
  attr {
    key: "T"
    value {
      type: DT_FLOAT
    }
  }
  attr {
    key: "_output_shapes"
    value {
      list {
        shape {
          dim {
            size: 1
          }
          dim {
            size: 7
          }
        }
      }
    }
  }
  attr {
    key: "transpose_a"
    value {
      b: false
    }
  }
  attr {
    key: "transpose_b"
    value {
      b: false
    }
  }
}
node {
  name: "global/add"
  op: "AddV2"
  input: "global/MatMul"
  input: "global/Bias/read"
  device: "/job:thread/task:0/device:CPU:0"
  attr {
    key: "T"
    value {
      type: DT_FLOAT
    }
  }
  attr {
    key: "_output_shapes"
    value {
      list {
        shape {
          dim {
            size: 1
          }
          dim {
            size: 7
          }
        }
      }
    }
  }
}
node {
  name: "global/Identity"
  op: "Identity"
  input: "global/add"
  device: "/job:thread/task:0/device:CPU:0"
  attr {
    key: "T"
    value {
      type: DT_FLOAT
    }
  }
  attr {
    key: "_output_shapes"
    value {
      list {
        shape {
          dim {
            size: 1
          }
          dim {
            size: 7
          }
        }
      }
    }
  }
}
node {
  name: "global/random_uniform_1/shape"
  op: "Const"
  device: "/job:thread/task:0/device:CPU:0"
  attr {
    key: "_output_shapes"
    value {
      list {
        shape {
          dim {
            size: 2
          }
        }
      }
    }
  }
  attr {
    key: "dtype"
    value {
      type: DT_INT32
    }
  }
  attr {
    key: "value"
    value {
      tensor {
        dtype: DT_INT32
        tensor_shape {
          dim {
            size: 2
          }
        }
        tensor_content: "\000\001\000\000\001\000\000\000"
      }
    }
  }
}
node {
  name: "global/random_uniform_1/min"
  op: "Const"
  device: "/job:thread/task:0/device:CPU:0"
  attr {
    key: "_output_shapes"
    value {
      list {
        shape {
        }
      }
    }
  }
  attr {
    key: "dtype"
    value {
      type: DT_FLOAT
    }
  }
  attr {
    key: "value"
    value {
      tensor {
        dtype: DT_FLOAT
        tensor_shape {
        }
        float_val: -0.1527949720621109
      }
    }
  }
}
node {
  name: "global/random_uniform_1/max"
  op: "Const"
  device: "/job:thread/task:0/device:CPU:0"
  attr {
    key: "_output_shapes"
    value {
      list {
        shape {
        }
      }
    }
  }
  attr {
    key: "dtype"
    value {
      type: DT_FLOAT
    }
  }
  attr {
    key: "value"
    value {
      tensor {
        dtype: DT_FLOAT
        tensor_shape {
        }
        float_val: 0.1527949720621109
      }
    }
  }
}
node {
  name: "global/random_uniform_1/RandomUniform"
  op: "RandomUniform"
  input: "global/random_uniform_1/shape"
  device: "/job:thread/task:0/device:CPU:0"
  attr {
    key: "T"
    value {
      type: DT_INT32
    }
  }
  attr {
    key: "_output_shapes"
    value {
      list {
        shape {
          dim {
            size: 256
          }
          dim {
            size: 1
          }
        }
      }
    }
  }
  attr {
    key: "dtype"
    value {
      type: DT_FLOAT
    }
  }
  attr {
    key: "seed"
    value {
      i: 0
    }
  }
  attr {
    key: "seed2"
    value {
      i: 0
    }
  }
}
node {
  name: "global/random_uniform_1/sub"
  op: "Sub"
  input: "global/random_uniform_1/max"
  input: "global/random_uniform_1/min"
  device: "/job:thread/task:0/device:CPU:0"
  attr {
    key: "T"
    value {
      type: DT_FLOAT
    }
  }
  attr {
    key: "_output_shapes"
    value {
      list {
        shape {
        }
      }
    }
  }
}
node {
  name: "global/random_uniform_1/mul"
  op: "Mul"
  input: "global/random_uniform_1/RandomUniform"
  input: "global/random_uniform_1/sub"
  device: "/job:thread/task:0/device:CPU:0"
  attr {
    key: "T"
    value {
      type: DT_FLOAT
    }
  }
  attr {
    key: "_output_shapes"
    value {
      list {
        shape {
          dim {
            size: 256
          }
          dim {
            size: 1
          }
        }
      }
    }
  }
}
node {
  name: "global/random_uniform_1"
  op: "Add"
  input: "global/random_uniform_1/mul"
  input: "global/random_uniform_1/min"
  device: "/job:thread/task:0/device:CPU:0"
  attr {
    key: "T"
    value {
      type: DT_FLOAT
    }
  }
  attr {
    key: "_output_shapes"
    value {
      list {
        shape {
          dim {
            size: 256
          }
          dim {
            size: 1
          }
        }
      }
    }
  }
}
node {
  name: "global/Weights_1"
  op: "VariableV2"
  device: "/job:master/task:0"
  attr {
    key: "_output_shapes"
    value {
      list {
        shape {
          dim {
            size: 256
          }
          dim {
            size: 1
          }
        }
      }
    }
  }
  attr {
    key: "container"
    value {
      s: ""
    }
  }
  attr {
    key: "dtype"
    value {
      type: DT_FLOAT
    }
  }
  attr {
    key: "shape"
    value {
      shape {
        dim {
          size: 256
        }
        dim {
          size: 1
        }
      }
    }
  }
  attr {
    key: "shared_name"
    value {
      s: ""
    }
  }
}
node {
  name: "global/Weights_1/Assign"
  op: "Assign"
  input: "global/Weights_1"
  input: "global/random_uniform_1"
  device: "/job:master/task:0"
  attr {
    key: "T"
    value {
      type: DT_FLOAT
    }
  }
  attr {
    key: "_class"
    value {
      list {
        s: "loc:@global/Weights_1"
      }
    }
  }
  attr {
    key: "_output_shapes"
    value {
      list {
        shape {
          dim {
            size: 256
          }
          dim {
            size: 1
          }
        }
      }
    }
  }
  attr {
    key: "use_locking"
    value {
      b: true
    }
  }
  attr {
    key: "validate_shape"
    value {
      b: true
    }
  }
}
node {
  name: "global/Weights_1/read"
  op: "Identity"
  input: "global/Weights_1"
  device: "/job:master/task:0"
  attr {
    key: "T"
    value {
      type: DT_FLOAT
    }
  }
  attr {
    key: "_class"
    value {
      list {
        s: "loc:@global/Weights_1"
      }
    }
  }
  attr {
    key: "_output_shapes"
    value {
      list {
        shape {
          dim {
            size: 256
          }
          dim {
            size: 1
          }
        }
      }
    }
  }
}
node {
  name: "global/Const_1"
  op: "Const"
  device: "/job:thread/task:0/device:CPU:0"
  attr {
    key: "_output_shapes"
    value {
      list {
        shape {
          dim {
            size: 1
          }
        }
      }
    }
  }
  attr {
    key: "dtype"
    value {
      type: DT_FLOAT
    }
  }
  attr {
    key: "value"
    value {
      tensor {
        dtype: DT_FLOAT
        tensor_shape {
          dim {
            size: 1
          }
        }
        float_val: 0.0
      }
    }
  }
}
node {
  name: "global/Bias_1"
  op: "VariableV2"
  device: "/job:master/task:0"
  attr {
    key: "_output_shapes"
    value {
      list {
        shape {
          dim {
            size: 1
          }
        }
      }
    }
  }
  attr {
    key: "container"
    value {
      s: ""
    }
  }
  attr {
    key: "dtype"
    value {
      type: DT_FLOAT
    }
  }
  attr {
    key: "shape"
    value {
      shape {
        dim {
          size: 1
        }
      }
    }
  }
  attr {
    key: "shared_name"
    value {
      s: ""
    }
  }
}
node {
  name: "global/Bias_1/Assign"
  op: "Assign"
  input: "global/Bias_1"
  input: "global/Const_1"
  device: "/job:master/task:0"
  attr {
    key: "T"
    value {
      type: DT_FLOAT
    }
  }
  attr {
    key: "_class"
    value {
      list {
        s: "loc:@global/Bias_1"
      }
    }
  }
  attr {
    key: "_output_shapes"
    value {
      list {
        shape {
          dim {
            size: 1
          }
        }
      }
    }
  }
  attr {
    key: "use_locking"
    value {
      b: true
    }
  }
  attr {
    key: "validate_shape"
    value {
      b: true
    }
  }
}
node {
  name: "global/Bias_1/read"
  op: "Identity"
  input: "global/Bias_1"
  device: "/job:master/task:0"
  attr {
    key: "T"
    value {
      type: DT_FLOAT
    }
  }
  attr {
    key: "_class"
    value {
      list {
        s: "loc:@global/Bias_1"
      }
    }
  }
  attr {
    key: "_output_shapes"
    value {
      list {
        shape {
          dim {
            size: 1
          }
        }
      }
    }
  }
}
node {
  name: "global/MatMul_1"
  op: "MatMul"
  input: "global/LSTM_Layer/Squeeze"
  input: "global/Weights_1/read"
  device: "/job:thread/task:0/device:CPU:0"
  attr {
    key: "T"
    value {
      type: DT_FLOAT
    }
  }
  attr {
    key: "_output_shapes"
    value {
      list {
        shape {
          dim {
            size: 1
          }
          dim {
            size: 1
          }
        }
      }
    }
  }
  attr {
    key: "transpose_a"
    value {
      b: false
    }
  }
  attr {
    key: "transpose_b"
    value {
      b: false
    }
  }
}
node {
  name: "global/add_1"
  op: "AddV2"
  input: "global/MatMul_1"
  input: "global/Bias_1/read"
  device: "/job:thread/task:0/device:CPU:0"
  attr {
    key: "T"
    value {
      type: DT_FLOAT
    }
  }
  attr {
    key: "_output_shapes"
    value {
      list {
        shape {
          dim {
            size: 1
          }
          dim {
            size: 1
          }
        }
      }
    }
  }
}
node {
  name: "global/Identity_1"
  op: "Identity"
  input: "global/add_1"
  device: "/job:thread/task:0/device:CPU:0"
  attr {
    key: "T"
    value {
      type: DT_FLOAT
    }
  }
  attr {
    key: "_output_shapes"
    value {
      list {
        shape {
          dim {
            size: 1
          }
          dim {
            size: 1
          }
        }
      }
    }
  }
}
node {
  name: "global/Squeeze"
  op: "Squeeze"
  input: "global/Identity_1"
  device: "/job:thread/task:0/device:CPU:0"
  attr {
    key: "T"
    value {
      type: DT_FLOAT
    }
  }
  attr {
    key: "_output_shapes"
    value {
      list {
        shape {
        }
      }
    }
  }
  attr {
    key: "squeeze_dims"
    value {
      list {
      }
    }
  }
}
node {
  name: "global/Max/reduction_indices"
  op: "Const"
  device: "/job:thread/task:0/device:CPU:0"
  attr {
    key: "_output_shapes"
    value {
      list {
        shape {
        }
      }
    }
  }
  attr {
    key: "dtype"
    value {
      type: DT_INT32
    }
  }
  attr {
    key: "value"
    value {
      tensor {
        dtype: DT_INT32
        tensor_shape {
        }
        int_val: 1
      }
    }
  }
}
node {
  name: "global/Max"
  op: "Max"
  input: "global/Identity"
  input: "global/Max/reduction_indices"
  device: "/job:thread/task:0/device:CPU:0"
  attr {
    key: "T"
    value {
      type: DT_FLOAT
    }
  }
  attr {
    key: "Tidx"
    value {
      type: DT_INT32
    }
  }
  attr {
    key: "_output_shapes"
    value {
      list {
        shape {
          dim {
            size: 1
          }
          dim {
            size: 1
          }
        }
      }
    }
  }
  attr {
    key: "keep_dims"
    value {
      b: true
    }
  }
}
node {
  name: "global/sub"
  op: "Sub"
  input: "global/Identity"
  input: "global/Max"
  device: "/job:thread/task:0/device:CPU:0"
  attr {
    key: "T"
    value {
      type: DT_FLOAT
    }
  }
  attr {
    key: "_output_shapes"
    value {
      list {
        shape {
          dim {
            size: 1
          }
          dim {
            size: 7
          }
        }
      }
    }
  }
}
node {
  name: "global/multinomial/Multinomial/num_samples"
  op: "Const"
  device: "/job:thread/task:0/device:CPU:0"
  attr {
    key: "_output_shapes"
    value {
      list {
        shape {
        }
      }
    }
  }
  attr {
    key: "dtype"
    value {
      type: DT_INT32
    }
  }
  attr {
    key: "value"
    value {
      tensor {
        dtype: DT_INT32
        tensor_shape {
        }
        int_val: 1
      }
    }
  }
}
node {
  name: "global/multinomial/Multinomial"
  op: "Multinomial"
  input: "global/sub"
  input: "global/multinomial/Multinomial/num_samples"
  device: "/job:thread/task:0/device:CPU:0"
  attr {
    key: "T"
    value {
      type: DT_FLOAT
    }
  }
  attr {
    key: "_output_shapes"
    value {
      list {
        shape {
          dim {
            size: 1
          }
          dim {
            size: 1
          }
        }
      }
    }
  }
  attr {
    key: "output_dtype"
    value {
      type: DT_INT64
    }
  }
  attr {
    key: "seed"
    value {
      i: 0
    }
  }
  attr {
    key: "seed2"
    value {
      i: 0
    }
  }
}
node {
  name: "global/Squeeze_1"
  op: "Squeeze"
  input: "global/multinomial/Multinomial"
  device: "/job:thread/task:0/device:CPU:0"
  attr {
    key: "T"
    value {
      type: DT_INT64
    }
  }
  attr {
    key: "_output_shapes"
    value {
      list {
        shape {
        }
      }
    }
  }
  attr {
    key: "squeeze_dims"
    value {
      list {
      }
    }
  }
}
node {
  name: "global/global_step/Initializer/Const"
  op: "Const"
  attr {
    key: "_class"
    value {
      list {
        s: "loc:@global/global_step"
      }
    }
  }
  attr {
    key: "_output_shapes"
    value {
      list {
        shape {
        }
      }
    }
  }
  attr {
    key: "dtype"
    value {
      type: DT_INT32
    }
  }
  attr {
    key: "value"
    value {
      tensor {
        dtype: DT_INT32
        tensor_shape {
        }
        int_val: 0
      }
    }
  }
}
node {
  name: "global/global_step"
  op: "VariableV2"
  device: "/job:master/task:0"
  attr {
    key: "_class"
    value {
      list {
        s: "loc:@global/global_step"
      }
    }
  }
  attr {
    key: "_output_shapes"
    value {
      list {
        shape {
        }
      }
    }
  }
  attr {
    key: "container"
    value {
      s: ""
    }
  }
  attr {
    key: "dtype"
    value {
      type: DT_INT32
    }
  }
  attr {
    key: "shape"
    value {
      shape {
      }
    }
  }
  attr {
    key: "shared_name"
    value {
      s: ""
    }
  }
}
node {
  name: "global/global_step/Assign"
  op: "Assign"
  input: "global/global_step"
  input: "global/global_step/Initializer/Const"
  device: "/job:master/task:0"
  attr {
    key: "T"
    value {
      type: DT_INT32
    }
  }
  attr {
    key: "_class"
    value {
      list {
        s: "loc:@global/global_step"
      }
    }
  }
  attr {
    key: "_output_shapes"
    value {
      list {
        shape {
        }
      }
    }
  }
  attr {
    key: "use_locking"
    value {
      b: true
    }
  }
  attr {
    key: "validate_shape"
    value {
      b: true
    }
  }
}
node {
  name: "global/global_step/read"
  op: "Identity"
  input: "global/global_step"
  device: "/job:master/task:0"
  attr {
    key: "T"
    value {
      type: DT_INT32
    }
  }
  attr {
    key: "_class"
    value {
      list {
        s: "loc:@global/global_step"
      }
    }
  }
  attr {
    key: "_output_shapes"
    value {
      list {
        shape {
        }
      }
    }
  }
}
node {
  name: "local/Input_States"
  op: "Placeholder"
  device: "/job:thread/task:0/device:CPU:0"
  attr {
    key: "_output_shapes"
    value {
      list {
        shape {
          dim {
            size: 1
          }
          dim {
            size: 31
          }
        }
      }
    }
  }
  attr {
    key: "dtype"
    value {
      type: DT_FLOAT
    }
  }
  attr {
    key: "shape"
    value {
      shape {
        dim {
          size: 1
        }
        dim {
          size: 31
        }
      }
    }
  }
}
node {
  name: "local/_fully_connected_Layer_1/random_uniform/shape"
  op: "Const"
  device: "/job:thread/task:0/device:CPU:0"
  attr {
…
  input: "^global/_fully_connected_Layer_1/Bias/Adam/Assign"
  input: "^global/_fully_connected_Layer_1/Bias/Adam_1/Assign"
  input: "^global/_fully_connected_Layer_1/Bias/Assign"
  input: "^global/_fully_connected_Layer_1/Weights/Adam/Assign"
  input: "^global/_fully_connected_Layer_1/Weights/Adam_1/Assign"
  input: "^global/_fully_connected_Layer_1/Weights/Assign"
  input: "^global/_fully_connected_Layer_2/Bias/Adam/Assign"
  input: "^global/_fully_connected_Layer_2/Bias/Adam_1/Assign"
  input: "^global/_fully_connected_Layer_2/Bias/Assign"
  input: "^global/_fully_connected_Layer_2/Weights/Adam/Assign"
  input: "^global/_fully_connected_Layer_2/Weights/Adam_1/Assign"
  input: "^global/_fully_connected_Layer_2/Weights/Assign"
  input: "^global/_fully_connected_Layer_3/Bias/Adam/Assign"
  input: "^global/_fully_connected_Layer_3/Bias/Adam_1/Assign"
  input: "^global/_fully_connected_Layer_3/Bias/Assign"
  input: "^global/_fully_connected_Layer_3/Weights/Adam/Assign"
  input: "^global/_fully_connected_Layer_3/Weights/Adam_1/Assign"
  input: "^global/_fully_connected_Layer_3/Weights/Assign"
  input: "^global/_fully_connected_Layer_4/Bias/Adam/Assign"
  input: "^global/_fully_connected_Layer_4/Bias/Adam_1/Assign"
  input: "^global/_fully_connected_Layer_4/Bias/Assign"
  input: "^global/_fully_connected_Layer_4/Weights/Adam/Assign"
  input: "^global/_fully_connected_Layer_4/Weights/Adam_1/Assign"
  input: "^global/_fully_connected_Layer_4/Weights/Assign"
  input: "^global/global_step/Assign"
  input: "^global/rnn/basic_lstm_cell/bias/Adam/Assign"
  input: "^global/rnn/basic_lstm_cell/bias/Adam_1/Assign"
  input: "^global/rnn/basic_lstm_cell/bias/Assign"
  input: "^global/rnn/basic_lstm_cell/kernel/Adam/Assign"
  input: "^global/rnn/basic_lstm_cell/kernel/Adam_1/Assign"
  input: "^global/rnn/basic_lstm_cell/kernel/Assign"
  device: "/job:master/task:0"
}
node {
  name: "save/filename/input"
  op: "Const"
  attr {
    key: "_output_shapes"
    value {
      list {
        shape {
        }
      }
    }
  }
  attr {
    key: "dtype"
    value {
      type: DT_STRING
    }
  }
  attr {
    key: "value"
    value {
      tensor {
        dtype: DT_STRING
        tensor_shape {
        }
        string_val: "model"
      }
    }
  }
}
node {
  name: "save/filename"
  op: "PlaceholderWithDefault"
  input: "save/filename/input"
  attr {
    key: "_output_shapes"
    value {
      list {
        shape {
        }
      }
    }
  }
  attr {
    key: "dtype"
    value {
      type: DT_STRING
    }
  }
  attr {
    key: "shape"
    value {
      shape {
      }
    }
  }
}
node {
  name: "save/Const"
  op: "PlaceholderWithDefault"
  input: "save/filename"
  attr {
    key: "_output_shapes"
    value {
      list {
        shape {
        }
      }
    }
  }
  attr {
    key: "dtype"
    value {
      type: DT_STRING
    }
  }
  attr {
    key: "shape"
    value {
      shape {
      }
    }
  }
}
node {
  name: "save/SaveV2/tensor_names"
  op: "Const"
  attr {
    key: "_output_shapes"
    value {
      list {
        shape {
          dim {
            size: 45
          }
        }
      }
    }
  }
  attr {
    key: "dtype"
    value {
      type: DT_STRING
    }
  }
  attr {
    key: "value"
    value {
      tensor {
        dtype: DT_STRING
        tensor_shape {
          dim {
            size: 45
          }
        }
        string_val: "beta1_power"
        string_val: "beta2_power"
        string_val: "global/Bias"
        string_val: "global/Bias/Adam"
        string_val: "global/Bias/Adam_1"
        string_val: "global/Bias_1"
        string_val: "global/Bias_1/Adam"
        string_val: "global/Bias_1/Adam_1"
        string_val: "global/Weights"
        string_val: "global/Weights/Adam"
        string_val: "global/Weights/Adam_1"
        string_val: "global/Weights_1"
        string_val: "global/Weights_1/Adam"
        string_val: "global/Weights_1/Adam_1"
        string_val: "global/_fully_connected_Layer_1/Bias"
        string_val: "global/_fully_connected_Layer_1/Bias/Adam"
        string_val: "global/_fully_connected_Layer_1/Bias/Adam_1"
        string_val: "global/_fully_connected_Layer_1/Weights"
        string_val: "global/_fully_connected_Layer_1/Weights/Adam"
        string_val: "global/_fully_connected_Layer_1/Weights/Adam_1"
        string_val: "global/_fully_connected_Layer_2/Bias"
        string_val: "global/_fully_connected_Layer_2/Bias/Adam"
        string_val: "global/_fully_connected_Layer_2/Bias/Adam_1"
        string_val: "global/_fully_connected_Layer_2/Weights"
        string_val: "global/_fully_connected_Layer_2/Weights/Adam"
        string_val: "global/_fully_connected_Layer_2/Weights/Adam_1"
        string_val: "global/_fully_connected_Layer_3/Bias"
        string_val: "global/_fully_connected_Layer_3/Bias/Adam"
        string_val: "global/_fully_connected_Layer_3/Bias/Adam_1"
        string_val: "global/_fully_connected_Layer_3/Weights"
        string_val: "global/_fully_connected_Layer_3/Weights/Adam"
        string_val: "global/_fully_connected_Layer_3/Weights/Adam_1"
        string_val: "global/_fully_connected_Layer_4/Bias"
        string_val: "global/_fully_connected_Layer_4/Bias/Adam"
        string_val: "global/_fully_connected_Layer_4/Bias/Adam_1"
        string_val: "global/_fully_connected_Layer_4/Weights"
        string_val: "global/_fully_connected_Layer_4/Weights/Adam"
        string_val: "global/_fully_connected_Layer_4/Weights/Adam_1"
        string_val: "global/global_step"
        string_val: "global/rnn/basic_lstm_cell/bias"
        string_val: "global/rnn/basic_lstm_cell/bias/Adam"
        string_val: "global/rnn/basic_lstm_cell/bias/Adam_1"
        string_val: "global/rnn/basic_lstm_cell/kernel"
        string_val: "global/rnn/basic_lstm_cell/kernel/Adam"
        string_val: "global/rnn/basic_lstm_cell/kernel/Adam_1"
      }
    }
  }
}
node {
  name: "save/SaveV2/shape_and_slices"
  op: "Const"
  attr {
    key: "_output_shapes"
    value {
      list {
        shape {
          dim {
            size: 45
          }
        }
      }
    }
  }
  attr {
    key: "dtype"
    value {
      type: DT_STRING
    }
  }
  attr {
    key: "value"
    value {
      tensor {
        dtype: DT_STRING
        tensor_shape {
          dim {
            size: 45
          }
        }
        string_val: ""
        string_val: ""
        string_val: ""
        string_val: ""
        string_val: ""
        string_val: ""
        string_val: ""
        string_val: ""
        string_val: ""
        string_val: ""
        string_val: ""
        string_val: ""
        string_val: ""
        string_val: ""
        string_val: ""
        string_val: ""
        string_val: ""
        string_val: ""
        string_val: ""
        string_val: ""
        string_val: ""
        string_val: ""
        string_val: ""
        string_val: ""
        string_val: ""
        string_val: ""
        string_val: ""
        string_val: ""
        string_val: ""
        string_val: ""
        string_val: ""
        string_val: ""
        string_val: ""
        string_val: ""
        string_val: ""
        string_val: ""
        string_val: ""
        string_val: ""
        string_val: ""
        string_val: ""
        string_val: ""
        string_val: ""
        string_val: ""
        string_val: ""
        string_val: ""
      }
    }
  }
}
node {
  name: "save/SaveV2"
  op: "SaveV2"
  input: "save/Const"
  input: "save/SaveV2/tensor_names"
  input: "save/SaveV2/shape_and_slices"
  input: "beta1_power"
  input: "beta2_power"
  input: "global/Bias"
  input: "global/Bias/Adam"
  input: "global/Bias/Adam_1"
  input: "global/Bias_1"
  input: "global/Bias_1/Adam"
  input: "global/Bias_1/Adam_1"
  input: "global/Weights"
  input: "global/Weights/Adam"
  input: "global/Weights/Adam_1"
  input: "global/Weights_1"
  input: "global/Weights_1/Adam"
  input: "global/Weights_1/Adam_1"
  input: "global/_fully_connected_Layer_1/Bias"
  input: "global/_fully_connected_Layer_1/Bias/Adam"
  input: "global/_fully_connected_Layer_1/Bias/Adam_1"
  input: "global/_fully_connected_Layer_1/Weights"
  input: "global/_fully_connected_Layer_1/Weights/Adam"
  input: "global/_fully_connected_Layer_1/Weights/Adam_1"
  input: "global/_fully_connected_Layer_2/Bias"
  input: "global/_fully_connected_Layer_2/Bias/Adam"
  input: "global/_fully_connected_Layer_2/Bias/Adam_1"
  input: "global/_fully_connected_Layer_2/Weights"
  input: "global/_fully_connected_Layer_2/Weights/Adam"
  input: "global/_fully_connected_Layer_2/Weights/Adam_1"
  input: "global/_fully_connected_Layer_3/Bias"
  input: "global/_fully_connected_Layer_3/Bias/Adam"
  input: "global/_fully_connected_Layer_3/Bias/Adam_1"
  input: "global/_fully_connected_Layer_3/Weights"
  input: "global/_fully_connected_Layer_3/Weights/Adam"
  input: "global/_fully_connected_Layer_3/Weights/Adam_1"
  input: "global/_fully_connected_Layer_4/Bias"
  input: "global/_fully_connected_Layer_4/Bias/Adam"
  input: "global/_fully_connected_Layer_4/Bias/Adam_1"
  input: "global/_fully_connected_Layer_4/Weights"
  input: "global/_fully_connected_Layer_4/Weights/Adam"
  input: "global/_fully_connected_Layer_4/Weights/Adam_1"
  input: "global/global_step"
  input: "global/rnn/basic_lstm_cell/bias"
  input: "global/rnn/basic_lstm_cell/bias/Adam"
  input: "global/rnn/basic_lstm_cell/bias/Adam_1"
  input: "global/rnn/basic_lstm_cell/kernel"
  input: "global/rnn/basic_lstm_cell/kernel/Adam"
  input: "global/rnn/basic_lstm_cell/kernel/Adam_1"
  attr {
    key: "dtypes"
    value {
      list {
        type: DT_FLOAT
        type: DT_FLOAT
        type: DT_FLOAT
        type: DT_FLOAT
        type: DT_FLOAT
        type: DT_FLOAT
        type: DT_FLOAT
        type: DT_FLOAT
        type: DT_FLOAT
        type: DT_FLOAT
        type: DT_FLOAT
        type: DT_FLOAT
        type: DT_FLOAT
        type: DT_FLOAT
        type: DT_FLOAT
        type: DT_FLOAT
        type: DT_FLOAT
        type: DT_FLOAT
        type: DT_FLOAT
        type: DT_FLOAT
        type: DT_FLOAT
        type: DT_FLOAT
        type: DT_FLOAT
        type: DT_FLOAT
        type: DT_FLOAT
        type: DT_FLOAT
        type: DT_FLOAT
        type: DT_FLOAT
        type: DT_FLOAT
        type: DT_FLOAT
        type: DT_FLOAT
        type: DT_FLOAT
        type: DT_FLOAT
        type: DT_FLOAT
        type: DT_FLOAT
        type: DT_FLOAT
        type: DT_FLOAT
        type: DT_FLOAT
        type: DT_INT32
        type: DT_FLOAT
        type: DT_FLOAT
        type: DT_FLOAT
        type: DT_FLOAT
        type: DT_FLOAT
        type: DT_FLOAT
      }
    }
  }
}
node {
  name: "save/control_dependency"
  op: "Identity"
  input: "save/Const"
  input: "^save/SaveV2"
  attr {
    key: "T"
    value {
      type: DT_STRING
    }
  }
  attr {
    key: "_class"
    value {
      list {
        s: "loc:@save/Const"
      }
    }
  }
  attr {
    key: "_output_shapes"
    value {
      list {
        shape {
        }
      }
    }
  }
}
node {
  name: "save/RestoreV2/tensor_names"
  op: "Const"
  device: "/device:CPU:0"
  attr {
    key: "_output_shapes"
    value {
      list {
        shape {
          dim {
            size: 45
          }
        }
      }
    }
  }
  attr {
    key: "dtype"
    value {
      type: DT_STRING
    }
  }
  attr {
    key: "value"
    value {
      tensor {
        dtype: DT_STRING
        tensor_shape {
          dim {
            size: 45
          }
        }
        string_val: "beta1_power"
        string_val: "beta2_power"
        string_val: "global/Bias"
        string_val: "global/Bias/Adam"
        string_val: "global/Bias/Adam_1"
        string_val: "global/Bias_1"
        string_val: "global/Bias_1/Adam"
        string_val: "global/Bias_1/Adam_1"
        string_val: "global/Weights"
        string_val: "global/Weights/Adam"
        string_val: "global/Weights/Adam_1"
        string_val: "global/Weights_1"
        string_val: "global/Weights_1/Adam"
        string_val: "global/Weights_1/Adam_1"
        string_val: "global/_fully_connected_Layer_1/Bias"
        string_val: "global/_fully_connected_Layer_1/Bias/Adam"
        string_val: "global/_fully_connected_Layer_1/Bias/Adam_1"
        string_val: "global/_fully_connected_Layer_1/Weights"
        string_val: "global/_fully_connected_Layer_1/Weights/Adam"
        string_val: "global/_fully_connected_Layer_1/Weights/Adam_1"
        string_val: "global/_fully_connected_Layer_2/Bias"
        string_val: "global/_fully_connected_Layer_2/Bias/Adam"
        string_val: "global/_fully_connected_Layer_2/Bias/Adam_1"
        string_val: "global/_fully_connected_Layer_2/Weights"
        string_val: "global/_fully_connected_Layer_2/Weights/Adam"
        string_val: "global/_fully_connected_Layer_2/Weights/Adam_1"
        string_val: "global/_fully_connected_Layer_3/Bias"
        string_val: "global/_fully_connected_Layer_3/Bias/Adam"
        string_val: "global/_fully_connected_Layer_3/Bias/Adam_1"
        string_val: "global/_fully_connected_Layer_3/Weights"
        string_val: "global/_fully_connected_Layer_3/Weights/Adam"
        string_val: "global/_fully_connected_Layer_3/Weights/Adam_1"
        string_val: "global/_fully_connected_Layer_4/Bias"
        string_val: "global/_fully_connected_Layer_4/Bias/Adam"
        string_val: "global/_fully_connected_Layer_4/Bias/Adam_1"
        string_val: "global/_fully_connected_Layer_4/Weights"
        string_val: "global/_fully_connected_Layer_4/Weights/Adam"
        string_val: "global/_fully_connected_Layer_4/Weights/Adam_1"
        string_val: "global/global_step"
        string_val: "global/rnn/basic_lstm_cell/bias"
        string_val: "global/rnn/basic_lstm_cell/bias/Adam"
        string_val: "global/rnn/basic_lstm_cell/bias/Adam_1"
        string_val: "global/rnn/basic_lstm_cell/kernel"
        string_val: "global/rnn/basic_lstm_cell/kernel/Adam"
        string_val: "global/rnn/basic_lstm_cell/kernel/Adam_1"
      }
    }
  }
}
node {
  name: "save/RestoreV2/shape_and_slices"
  op: "Const"
  device: "/device:CPU:0"
  attr {
    key: "_output_shapes"
    value {
      list {
        shape {
          dim {
            size: 45
          }
        }
      }
    }
  }
  attr {
    key: "dtype"
    value {
      type: DT_STRING
    }
  }
  attr {
    key: "value"
    value {
      tensor {
        dtype: DT_STRING
        tensor_shape {
          dim {
            size: 45
          }
        }
        string_val: ""
        string_val: ""
        string_val: ""
        string_val: ""
        string_val: ""
        string_val: ""
        string_val: ""
        string_val: ""
        string_val: ""
        string_val: ""
        string_val: ""
        string_val: ""
        string_val: ""
        string_val: ""
        string_val: ""
        string_val: ""
        string_val: ""
        string_val: ""
        string_val: ""
        string_val: ""
        string_val: ""
        string_val: ""
        string_val: ""
        string_val: ""
        string_val: ""
        string_val: ""
        string_val: ""
        string_val: ""
        string_val: ""
        string_val: ""
        string_val: ""
        string_val: ""
        string_val: ""
        string_val: ""
        string_val: ""
        string_val: ""
        string_val: ""
        string_val: ""
        string_val: ""
        string_val: ""
        string_val: ""
        string_val: ""
        string_val: ""
        string_val: ""
        string_val: ""
      }
    }
  }
}
node {
  name: "save/RestoreV2"
  op: "RestoreV2"
  input: "save/Const"
  input: "save/RestoreV2/tensor_names"
  input: "save/RestoreV2/shape_and_slices"
  device: "/device:CPU:0"
  attr {
    key: "_output_shapes"
    value {
      list {
        shape {
          unknown_rank: true
        }
        shape {
          unknown_rank: true
        }
        shape {
          unknown_rank: true
        }
        shape {
          unknown_rank: true
        }
        shape {
          unknown_rank: true
        }
        shape {
          unknown_rank: true
        }
        shape {
          unknown_rank: true
        }
        shape {
          unknown_rank: true
        }
        shape {
          unknown_rank: true
        }
        shape {
          unknown_rank: true
        }
        shape {
          unknown_rank: true
        }
        shape {
          unknown_rank: true
        }
        shape {
          unknown_rank: true
        }
        shape {
          unknown_rank: true
        }
        shape {
          unknown_rank: true
        }
        shape {
          unknown_rank: true
        }
        shape {
          unknown_rank: true
        }
        shape {
          unknown_rank: true
        }
        shape {
          unknown_rank: true
        }
        shape {
          unknown_rank: true
        }
        shape {
          unknown_rank: true
        }
        shape {
          unknown_rank: true
        }
        shape {
          unknown_rank: true
        }
        shape {
          unknown_rank: true
        }
        shape {
          unknown_rank: true
        }
        shape {
          unknown_rank: true
        }
        shape {
          unknown_rank: true
        }
        shape {
          unknown_rank: true
        }
        shape {
          unknown_rank: true
        }
        shape {
          unknown_rank: true
        }
        shape {
          unknown_rank: true
        }
        shape {
          unknown_rank: true
        }
        shape {
          unknown_rank: true
        }
        shape {
          unknown_rank: true
        }
        shape {
          unknown_rank: true
        }
        shape {
          unknown_rank: true
        }
        shape {
          unknown_rank: true
        }
        shape {
          unknown_rank: true
        }
        shape {
          unknown_rank: true
        }
        shape {
          unknown_rank: true
        }
        shape {
          unknown_rank: true
        }
        shape {
          unknown_rank: true
        }
        shape {
          unknown_rank: true
        }
        shape {
          unknown_rank: true
        }
        shape {
          unknown_rank: true
        }
      }
    }
  }
  attr {
    key: "dtypes"
    value {
      list {
        type: DT_FLOAT
        type: DT_FLOAT
        type: DT_FLOAT
        type: DT_FLOAT
        type: DT_FLOAT
        type: DT_FLOAT
        type: DT_FLOAT
        type: DT_FLOAT
        type: DT_FLOAT
        type: DT_FLOAT
        type: DT_FLOAT
        type: DT_FLOAT
        type: DT_FLOAT
        type: DT_FLOAT
        type: DT_FLOAT
        type: DT_FLOAT
        type: DT_FLOAT
        type: DT_FLOAT
        type: DT_FLOAT
        type: DT_FLOAT
        type: DT_FLOAT
        type: DT_FLOAT
        type: DT_FLOAT
        type: DT_FLOAT
        type: DT_FLOAT
        type: DT_FLOAT
        type: DT_FLOAT
        type: DT_FLOAT
        type: DT_FLOAT
        type: DT_FLOAT
        type: DT_FLOAT
        type: DT_FLOAT
        type: DT_FLOAT
        type: DT_FLOAT
        type: DT_FLOAT
        type: DT_FLOAT
        type: DT_FLOAT
        type: DT_FLOAT
        type: DT_INT32
        type: DT_FLOAT
        type: DT_FLOAT
        type: DT_FLOAT
        type: DT_FLOAT
        type: DT_FLOAT
        type: DT_FLOAT
      }
    }
  }
}
node {
  name: "save/Assign"
  op: "Assign"
  input: "beta1_power"
  input: "save/RestoreV2"
  device: "/job:master/task:0"
  attr {
    key: "T"
    value {
      type: DT_FLOAT
    }
  }
  attr {
    key: "_class"
    value {
      list {
        s: "loc:@global/Bias"
      }
    }
  }
  attr {
    key: "_output_shapes"
    value {
      list {
        shape {
        }
      }
    }
  }
  attr {
    key: "use_locking"
    value {
      b: true
    }
  }
  attr {
    key: "validate_shape"
    value {
      b: true
    }
  }
}
node {
  name: "save/Assign_1"
  op: "Assign"
  input: "beta2_power"
  input: "save/RestoreV2:1"
  device: "/job:master/task:0"
  attr {
    key: "T"
    value {
      type: DT_FLOAT
    }
  }
  attr {
    key: "_class"
    value {
      list {
        s: "loc:@global/Bias"
      }
    }
  }
  attr {
    key: "_output_shapes"
    value {
      list {
        shape {
        }
      }
    }
  }
  attr {
    key: "use_locking"
    value {
      b: true
    }
  }
  attr {
    key: "validate_shape"
    value {
      b: true
    }
  }
}
node {
  name: "save/Assign_2"
  op: "Assign"
  input: "global/Bias"
  input: "save/RestoreV2:2"
  device: "/job:master/task:0"
  attr {
    key: "T"
    value {
      type: DT_FLOAT
    }
  }
  attr {
    key: "_class"
    value {
      list {
        s: "loc:@global/Bias"
      }
    }
  }
  attr {
    key: "_output_shapes"
    value {
      list {
        shape {
          dim {
            size: 7
          }
        }
      }
    }
  }
  attr {
    key: "use_locking"
    value {
      b: true
    }
  }
  attr {
    key: "validate_shape"
    value {
      b: true
    }
  }
}
node {
  name: "save/Assign_3"
  op: "Assign"
  input: "global/Bias/Adam"
  input: "save/RestoreV2:3"
  device: "/job:master/task:0"
  attr {
    key: "T"
    value {
      type: DT_FLOAT
    }
  }
  attr {
    key: "_class"
    value {
      list {
        s: "loc:@global/Bias"
      }
    }
  }
  attr {
    key: "_output_shapes"
    value {
      list {
        shape {
          dim {
            size: 7
          }
        }
      }
    }
  }
  attr {
    key: "use_locking"
    value {
      b: true
    }
  }
  attr {
    key: "validate_shape"
    value {
      b: true
    }
  }
}
node {
  name: "save/Assign_4"
  op: "Assign"
  input: "global/Bias/Adam_1"
  input: "save/RestoreV2:4"
  device: "/job:master/task:0"
  attr {
    key: "T"
    value {
      type: DT_FLOAT
    }
  }
  attr {
    key: "_class"
    value {
      list {
        s: "loc:@global/Bias"
      }
    }
  }
  attr {
    key: "_output_shapes"
    value {
      list {
        shape {
          dim {
            size: 7
          }
        }
      }
    }
  }
  attr {
    key: "use_locking"
    value {
      b: true
    }
  }
  attr {
    key: "validate_shape"
    value {
      b: true
    }
  }
}
node {
  name: "save/Assign_5"
  op: "Assign"
  input: "global/Bias_1"
  input: "save/RestoreV2:5"
  device: "/job:master/task:0"
  attr {
    key: "T"
    value {
      type: DT_FLOAT
    }
  }
  attr {
    key: "_class"
    value {
      list {
        s: "loc:@global/Bias_1"
      }
    }
  }
  attr {
    key: "_output_shapes"
    value {
      list {
        shape {
          dim {
            size: 1
          }
        }
      }
    }
  }
  attr {
    key: "use_locking"
    value {
      b: true
    }
  }
  attr {
    key: "validate_shape"
    value {
      b: true
    }
  }
}
node {
  name: "save/Assign_6"
  op: "Assign"
  input: "global/Bias_1/Adam"
  input: "save/RestoreV2:6"
  device: "/job:master/task:0"
  attr {
    key: "T"
    value {
      type: DT_FLOAT
    }
  }
  attr {
    key: "_class"
    value {
      list {
        s: "loc:@global/Bias_1"
      }
    }
  }
  attr {
    key: "_output_shapes"
    value {
      list {
        shape {
          dim {
            size: 1
          }
        }
      }
    }
  }
  attr {
    key: "use_locking"
    value {
      b: true
    }
  }
  attr {
    key: "validate_shape"
    value {
      b: true
    }
  }
}
node {
  name: "save/Assign_7"
  op: "Assign"
  input: "global/Bias_1/Adam_1"
  input: "save/RestoreV2:7"
  device: "/job:master/task:0"
  attr {
    key: "T"
    value {
      type: DT_FLOAT
    }
  }
  attr {
    key: "_class"
    value {
      list {
        s: "loc:@global/Bias_1"
      }
    }
  }
  attr {
    key: "_output_shapes"
    value {
      list {
        shape {
          dim {
            size: 1
          }
        }
      }
    }
  }
  attr {
    key: "use_locking"
    value {
      b: true
    }
  }
  attr {
    key: "validate_shape"
    value {
      b: true
    }
  }
}
node {
  name: "save/Assign_8"
  op: "Assign"
  input: "global/Weights"
  input: "save/RestoreV2:8"
  device: "/job:master/task:0"
  attr {
    key: "T"
    value {
      type: DT_FLOAT
    }
  }
  attr {
    key: "_class"
    value {
      list {
        s: "loc:@global/Weights"
      }
    }
  }
  attr {
    key: "_output_shapes"
    value {
      list {
        shape {
          dim {
            size: 256
          }
          dim {
            size: 7
          }
        }
      }
    }
  }
  attr {
    key: "use_locking"
    value {
      b: true
    }
  }
  attr {
    key: "validate_shape"
    value {
      b: true
    }
  }
}
node {
  name: "save/Assign_9"
  op: "Assign"
  input: "global/Weights/Adam"
  input: "save/RestoreV2:9"
  device: "/job:master/task:0"
  attr {
    key: "T"
    value {
      type: DT_FLOAT
    }
  }
  attr {
    key: "_class"
    value {
      list {
        s: "loc:@global/Weights"
      }
    }
  }
  attr {
    key: "_output_shapes"
    value {
      list {
        shape {
          dim {
            size: 256
          }
          dim {
            size: 7
          }
        }
      }
    }
  }
  attr {
    key: "use_locking"
    value {
      b: true
    }
  }
  attr {
    key: "validate_shape"
    value {
      b: true
    }
  }
}
node {
  name: "save/Assign_10"
  op: "Assign"
  input: "global/Weights/Adam_1"
  input: "save/RestoreV2:10"
  device: "/job:master/task:0"
  attr {
    key: "T"
    value {
      type: DT_FLOAT
    }
  }
  attr {
    key: "_class"
    value {
      list {
        s: "loc:@global/Weights"
      }
    }
  }
  attr {
    key: "_output_shapes"
    value {
      list {
        shape {
          dim {
            size: 256
          }
          dim {
            size: 7
          }
        }
      }
    }
  }
  attr {
    key: "use_locking"
    value {
      b: true
    }
  }
  attr {
    key: "validate_shape"
    value {
      b: true
    }
  }
}
node {
  name: "save/Assign_11"
  op: "Assign"
  input: "global/Weights_1"
  input: "save/RestoreV2:11"
  device: "/job:master/task:0"
  attr {
    key: "T"
    value {
      type: DT_FLOAT
    }
  }
  attr {
    key: "_class"
    value {
      list {
        s: "loc:@global/Weights_1"
      }
    }
  }
  attr {
    key: "_output_shapes"
    value {
      list {
        shape {
          dim {
            size: 256
          }
          dim {
            size: 1
          }
        }
      }
    }
  }
  attr {
    key: "use_locking"
    value {
      b: true
    }
  }
  attr {
    key: "validate_shape"
    value {
      b: true
    }
  }
}
node {
  name: "save/Assign_12"
  op: "Assign"
  input: "global/Weights_1/Adam"
  input: "save/RestoreV2:12"
  device: "/job:master/task:0"
  attr {
    key: "T"
    value {
      type: DT_FLOAT
    }
  }
  attr {
    key: "_class"
    value {
      list {
        s: "loc:@global/Weights_1"
      }
    }
  }
  attr {
    key: "_output_shapes"
    value {
      list {
        shape {
          dim {
            size: 256
          }
          dim {
            size: 1
          }
        }
      }
    }
  }
  attr {
    key: "use_locking"
    value {
      b: true
    }
  }
  attr {
    key: "validate_shape"
    value {
      b: true
    }
  }
}
node {
  name: "save/Assign_13"
  op: "Assign"
  input: "global/Weights_1/Adam_1"
  input: "save/RestoreV2:13"
  device: "/job:master/task:0"
  attr {
    key: "T"
    value {
      type: DT_FLOAT
    }
  }
  attr {
    key: "_class"
    value {
      list {
        s: "loc:@global/Weights_1"
      }
    }
  }
  attr {
    key: "_output_shapes"
    value {
      list {
        shape {
          dim {
            size: 256
          }
          dim {
            size: 1
          }
        }
      }
    }
  }
  attr {
    key: "use_locking"
    value {
      b: true
    }
  }
  attr {
    key: "validate_shape"
    value {
      b: true
    }
  }
}
node {
  name: "save/Assign_14"
  op: "Assign"
  input: "global/_fully_connected_Layer_1/Bias"
  input: "save/RestoreV2:14"
  device: "/job:master/task:0"
  attr {
    key: "T"
    value {
      type: DT_FLOAT
    }
  }
  attr {
    key: "_class"
    value {
      list {
        s: "loc:@global/_fully_connected_Layer_1/Bias"
      }
    }
  }
  attr {
    key: "_output_shapes"
    value {
      list {
        shape {
          dim {
            size: 255
          }
        }
      }
    }
  }
  attr {
    key: "use_locking"
    value {
      b: true
    }
  }
  attr {
    key: "validate_shape"
    value {
      b: true
    }
  }
}
node {
  name: "save/Assign_15"
  op: "Assign"
  input: "global/_fully_connected_Layer_1/Bias/Adam"
  input: "save/RestoreV2:15"
  device: "/job:master/task:0"
  attr {
    key: "T"
    value {
      type: DT_FLOAT
    }
  }
  attr {
    key: "_class"
    value {
      list {
        s: "loc:@global/_fully_connected_Layer_1/Bias"
      }
    }
  }
  attr {
    key: "_output_shapes"
    value {
      list {
        shape {
          dim {
            size: 255
          }
        }
      }
    }
  }
  attr {
    key: "use_locking"
    value {
      b: true
    }
  }
  attr {
    key: "validate_shape"
    value {
      b: true
    }
  }
}
node {
  name: "save/Assign_16"
  op: "Assign"
  input: "global/_fully_connected_Layer_1/Bias/Adam_1"
  input: "save/RestoreV2:16"
  device: "/job:master/task:0"
  attr {
    key: "T"
    value {
      type: DT_FLOAT
    }
  }
  attr {
    key: "_class"
    value {
      list {
        s: "loc:@global/_fully_connected_Layer_1/Bias"
      }
    }
  }
  attr {
    key: "_output_shapes"
    value {
      list {
        shape {
          dim {
            size: 255
          }
        }
      }
    }
  }
  attr {
    key: "use_locking"
    value {
      b: true
    }
  }
  attr {
    key: "validate_shape"
    value {
      b: true
    }
  }
}
node {
  name: "save/Assign_17"
  op: "Assign"
  input: "global/_fully_connected_Layer_1/Weights"
  input: "save/RestoreV2:17"
  device: "/job:master/task:0"
  attr {
    key: "T"
    value {
      type: DT_FLOAT
    }
  }
  attr {
    key: "_class"
    value {
      list {
        s: "loc:@global/_fully_connected_Layer_1/Weights"
      }
    }
  }
  attr {
    key: "_output_shapes"
    value {
      list {
        shape {
          dim {
            size: 31
          }
          dim {
            size: 255
          }
        }
      }
    }
  }
  attr {
    key: "use_locking"
    value {
      b: true
    }
  }
  attr {
    key: "validate_shape"
    value {
      b: true
    }
  }
}
node {
  name: "save/Assign_18"
  op: "Assign"
  input: "global/_fully_connected_Layer_1/Weights/Adam"
  input: "save/RestoreV2:18"
  device: "/job:master/task:0"
  attr {
    key: "T"
    value {
      type: DT_FLOAT
    }
  }
  attr {
    key: "_class"
    value {
      list {
        s: "loc:@global/_fully_connected_Layer_1/Weights"
      }
    }
  }
  attr {
    key: "_output_shapes"
    value {
      list {
        shape {
          dim {
            size: 31
          }
          dim {
            size: 255
          }
        }
      }
    }
  }
  attr {
    key: "use_locking"
    value {
      b: true
    }
  }
  attr {
    key: "validate_shape"
    value {
      b: true
    }
  }
}
node {
  name: "save/Assign_19"
  op: "Assign"
  input: "global/_fully_connected_Layer_1/Weights/Adam_1"
  input: "save/RestoreV2:19"
  device: "/job:master/task:0"
  attr {
    key: "T"
    value {
      type: DT_FLOAT
    }
  }
  attr {
    key: "_class"
    value {
      list {
        s: "loc:@global/_fully_connected_Layer_1/Weights"
      }
    }
  }
  attr {
    key: "_output_shapes"
    value {
      list {
        shape {
          dim {
            size: 31
          }
          dim {
            size: 255
          }
        }
      }
    }
  }
  attr {
    key: "use_locking"
    value {
      b: true
    }
  }
  attr {
    key: "validate_shape"
    value {
      b: true
    }
  }
}
node {
  name: "save/Assign_20"
  op: "Assign"
  input: "global/_fully_connected_Layer_2/Bias"
  input: "save/RestoreV2:20"
  device: "/job:master/task:0"
  attr {
    key: "T"
    value {
      type: DT_FLOAT
    }
  }
  attr {
    key: "_class"
    value {
      list {
        s: "loc:@global/_fully_connected_Layer_2/Bias"
      }
    }
  }
  attr {
    key: "_output_shapes"
    value {
      list {
        shape {
          dim {
            size: 255
          }
        }
      }
    }
  }
  attr {
    key: "use_locking"
    value {
      b: true
    }
  }
  attr {
    key: "validate_shape"
    value {
      b: true
    }
  }
}
node {
  name: "save/Assign_21"
  op: "Assign"
  input: "global/_fully_connected_Layer_2/Bias/Adam"
  input: "save/RestoreV2:21"
  device: "/job:master/task:0"
  attr {
    key: "T"
    value {
      type: DT_FLOAT
    }
  }
  attr {
    key: "_class"
    value {
      list {
        s: "loc:@global/_fully_connected_Layer_2/Bias"
      }
    }
  }
  attr {
    key: "_output_shapes"
    value {
      list {
        shape {
          dim {
            size: 255
          }
        }
      }
    }
  }
  attr {
    key: "use_locking"
    value {
      b: true
    }
  }
  attr {
    key: "validate_shape"
    value {
      b: true
    }
  }
}
node {
  name: "save/Assign_22"
  op: "Assign"
  input: "global/_fully_connected_Layer_2/Bias/Adam_1"
  input: "save/RestoreV2:22"
  device: "/job:master/task:0"
  attr {
    key: "T"
    value {
      type: DT_FLOAT
    }
  }
  attr {
    key: "_class"
    value {
      list {
        s: "loc:@global/_fully_connected_Layer_2/Bias"
      }
    }
  }
  attr {
    key: "_output_shapes"
    value {
      list {
        shape {
          dim {
            size: 255
          }
        }
      }
    }
  }
  attr {
    key: "use_locking"
    value {
      b: true
    }
  }
  attr {
    key: "validate_shape"
    value {
      b: true
    }
  }
}
node {
  name: "save/Assign_23"
  op: "Assign"
  input: "global/_fully_connected_Layer_2/Weights"
  input: "save/RestoreV2:23"
  device: "/job:master/task:0"
  attr {
    key: "T"
    value {
      type: DT_FLOAT
    }
  }
  attr {
    key: "_class"
    value {
      list {
        s: "loc:@global/_fully_connected_Layer_2/Weights"
      }
    }
  }
  attr {
    key: "_output_shapes"
    value {
      list {
        shape {
          dim {
            size: 255
          }
          dim {
            size: 255
          }
        }
      }
    }
  }
  attr {
    key: "use_locking"
    value {
      b: true
    }
  }
  attr {
    key: "validate_shape"
    value {
      b: true
    }
  }
}
node {
  name: "save/Assign_24"
  op: "Assign"
  input: "global/_fully_connected_Layer_2/Weights/Adam"
  input: "save/RestoreV2:24"
  device: "/job:master/task:0"
  attr {
    key: "T"
    value {
      type: DT_FLOAT
    }
  }
  attr {
    key: "_class"
    value {
      list {
        s: "loc:@global/_fully_connected_Layer_2/Weights"
      }
    }
  }
  attr {
    key: "_output_shapes"
    value {
      list {
        shape {
          dim {
            size: 255
          }
          dim {
            size: 255
          }
        }
      }
    }
  }
  attr {
    key: "use_locking"
    value {
      b: true
    }
  }
  attr {
    key: "validate_shape"
    value {
      b: true
    }
  }
}
node {
  name: "save/Assign_25"
  op: "Assign"
  input: "global/_fully_connected_Layer_2/Weights/Adam_1"
  input: "save/RestoreV2:25"
  device: "/job:master/task:0"
  attr {
    key: "T"
    value {
      type: DT_FLOAT
    }
  }
  attr {
    key: "_class"
    value {
      list {
        s: "loc:@global/_fully_connected_Layer_2/Weights"
      }
    }
  }
  attr {
    key: "_output_shapes"
    value {
      list {
        shape {
          dim {
            size: 255
          }
          dim {
            size: 255
          }
        }
      }
    }
  }
  attr {
    key: "use_locking"
    value {
      b: true
    }
  }
  attr {
    key: "validate_shape"
    value {
      b: true
    }
  }
}
node {
  name: "save/Assign_26"
  op: "Assign"
  input: "global/_fully_connected_Layer_3/Bias"
  input: "save/RestoreV2:26"
  device: "/job:master/task:0"
  attr {
    key: "T"
    value {
      type: DT_FLOAT
    }
  }
  attr {
    key: "_class"
    value {
      list {
        s: "loc:@global/_fully_connected_Layer_3/Bias"
      }
    }
  }
  attr {
    key: "_output_shapes"
    value {
      list {
        shape {
          dim {
            size: 255
          }
        }
      }
    }
  }
  attr {
    key: "use_locking"
    value {
      b: true
    }
  }
  attr {
    key: "validate_shape"
    value {
      b: true
    }
  }
}
node {
  name: "save/Assign_27"
  op: "Assign"
  input: "global/_fully_connected_Layer_3/Bias/Adam"
  input: "save/RestoreV2:27"
  device: "/job:master/task:0"
  attr {
    key: "T"
    value {
      type: DT_FLOAT
    }
  }
  attr {
    key: "_class"
    value {
      list {
        s: "loc:@global/_fully_connected_Layer_3/Bias"
      }
    }
  }
  attr {
    key: "_output_shapes"
    value {
      list {
        shape {
          dim {
            size: 255
          }
        }
      }
    }
  }
  attr {
    key: "use_locking"
    value {
      b: true
    }
  }
  attr {
    key: "validate_shape"
    value {
      b: true
    }
  }
}
node {
  name: "save/Assign_28"
  op: "Assign"
  input: "global/_fully_connected_Layer_3/Bias/Adam_1"
  input: "save/RestoreV2:28"
  device: "/job:master/task:0"
  attr {
    key: "T"
    value {
      type: DT_FLOAT
    }
  }
  attr {
    key: "_class"
    value {
      list {
        s: "loc:@global/_fully_connected_Layer_3/Bias"
      }
    }
  }
  attr {
    key: "_output_shapes"
    value {
      list {
        shape {
          dim {
            size: 255
          }
        }
      }
    }
  }
  attr {
    key: "use_locking"
    value {
      b: true
    }
  }
  attr {
    key: "validate_shape"
    value {
      b: true
    }
  }
}
node {
  name: "save/Assign_29"
  op: "Assign"
  input: "global/_fully_connected_Layer_3/Weights"
  input: "save/RestoreV2:29"
  device: "/job:master/task:0"
  attr {
    key: "T"
    value {
      type: DT_FLOAT
    }
  }
  attr {
    key: "_class"
    value {
      list {
        s: "loc:@global/_fully_connected_Layer_3/Weights"
      }
    }
  }
  attr {
    key: "_output_shapes"
    value {
      list {
        shape {
          dim {
            size: 255
          }
          dim {
            size: 255
          }
        }
      }
    }
  }
  attr {
    key: "use_locking"
    value {
      b: true
    }
  }
  attr {
    key: "validate_shape"
    value {
      b: true
    }
  }
}
node {
  name: "save/Assign_30"
  op: "Assign"
  input: "global/_fully_connected_Layer_3/Weights/Adam"
  input: "save/RestoreV2:30"
  device: "/job:master/task:0"
  attr {
    key: "T"
    value {
      type: DT_FLOAT
    }
  }
  attr {
    key: "_class"
    value {
      list {
        s: "loc:@global/_fully_connected_Layer_3/Weights"
      }
    }
  }
  attr {
    key: "_output_shapes"
    value {
      list {
        shape {
          dim {
            size: 255
          }
          dim {
            size: 255
          }
        }
      }
    }
  }
  attr {
    key: "use_locking"
    value {
      b: true
    }
  }
  attr {
    key: "validate_shape"
    value {
      b: true
    }
  }
}
node {
  name: "save/Assign_31"
  op: "Assign"
  input: "global/_fully_connected_Layer_3/Weights/Adam_1"
  input: "save/RestoreV2:31"
  device: "/job:master/task:0"
  attr {
    key: "T"
    value {
      type: DT_FLOAT
    }
  }
  attr {
    key: "_class"
    value {
      list {
        s: "loc:@global/_fully_connected_Layer_3/Weights"
      }
    }
  }
  attr {
    key: "_output_shapes"
    value {
      list {
        shape {
          dim {
            size: 255
          }
          dim {
            size: 255
          }
        }
      }
    }
  }
  attr {
    key: "use_locking"
    value {
      b: true
    }
  }
  attr {
    key: "validate_shape"
    value {
      b: true
    }
  }
}
node {
  name: "save/Assign_32"
  op: "Assign"
  input: "global/_fully_connected_Layer_4/Bias"
  input: "save/RestoreV2:32"
  device: "/job:master/task:0"
  attr {
    key: "T"
    value {
      type: DT_FLOAT
    }
  }
  attr {
    key: "_class"
    value {
      list {
        s: "loc:@global/_fully_connected_Layer_4/Bias"
      }
    }
  }
  attr {
    key: "_output_shapes"
    value {
      list {
        shape {
          dim {
            size: 255
          }
        }
      }
    }
  }
  attr {
    key: "use_locking"
    value {
      b: true
    }
  }
  attr {
    key: "validate_shape"
    value {
      b: true
    }
  }
}
node {
  name: "save/Assign_33"
  op: "Assign"
  input: "global/_fully_connected_Layer_4/Bias/Adam"
  input: "save/RestoreV2:33"
  device: "/job:master/task:0"
  attr {
    key: "T"
    value {
      type: DT_FLOAT
    }
  }
  attr {
    key: "_class"
    value {
      list {
        s: "loc:@global/_fully_connected_Layer_4/Bias"
      }
    }
  }
  attr {
    key: "_output_shapes"
    value {
      list {
        shape {
          dim {
            size: 255
          }
        }
      }
    }
  }
  attr {
    key: "use_locking"
    value {
      b: true
    }
  }
  attr {
    key: "validate_shape"
    value {
      b: true
    }
  }
}
node {
  name: "save/Assign_34"
  op: "Assign"
  input: "global/_fully_connected_Layer_4/Bias/Adam_1"
  input: "save/RestoreV2:34"
  device: "/job:master/task:0"
  attr {
    key: "T"
    value {
      type: DT_FLOAT
    }
  }
  attr {
    key: "_class"
    value {
      list {
        s: "loc:@global/_fully_connected_Layer_4/Bias"
      }
    }
  }
  attr {
    key: "_output_shapes"
    value {
      list {
        shape {
          dim {
            size: 255
          }
        }
      }
    }
  }
  attr {
    key: "use_locking"
    value {
      b: true
    }
  }
  attr {
    key: "validate_shape"
    value {
      b: true
    }
  }
}
node {
  name: "save/Assign_35"
  op: "Assign"
  input: "global/_fully_connected_Layer_4/Weights"
  input: "save/RestoreV2:35"
  device: "/job:master/task:0"
  attr {
    key: "T"
    value {
      type: DT_FLOAT
    }
  }
  attr {
    key: "_class"
    value {
      list {
        s: "loc:@global/_fully_connected_Layer_4/Weights"
      }
    }
  }
  attr {
    key: "_output_shapes"
    value {
      list {
        shape {
          dim {
            size: 255
          }
          dim {
            size: 255
          }
        }
      }
    }
  }
  attr {
    key: "use_locking"
    value {
      b: true
    }
  }
  attr {
    key: "validate_shape"
    value {
      b: true
    }
  }
}
node {
  name: "save/Assign_36"
  op: "Assign"
  input: "global/_fully_connected_Layer_4/Weights/Adam"
  input: "save/RestoreV2:36"
  device: "/job:master/task:0"
  attr {
    key: "T"
    value {
      type: DT_FLOAT
    }
  }
  attr {
    key: "_class"
    value {
      list {
        s: "loc:@global/_fully_connected_Layer_4/Weights"
      }
    }
  }
  attr {
    key: "_output_shapes"
    value {
      list {
        shape {
          dim {
            size: 255
          }
          dim {
            size: 255
          }
        }
      }
    }
  }
  attr {
    key: "use_locking"
    value {
      b: true
    }
  }
  attr {
    key: "validate_shape"
    value {
      b: true
    }
  }
}
node {
  name: "save/Assign_37"
  op: "Assign"
  input: "global/_fully_connected_Layer_4/Weights/Adam_1"
  input: "save/RestoreV2:37"
  device: "/job:master/task:0"
  attr {
    key: "T"
    value {
      type: DT_FLOAT
    }
  }
  attr {
    key: "_class"
    value {
      list {
        s: "loc:@global/_fully_connected_Layer_4/Weights"
      }
    }
  }
  attr {
    key: "_output_shapes"
    value {
      list {
        shape {
          dim {
            size: 255
          }
          dim {
            size: 255
          }
        }
      }
    }
  }
  attr {
    key: "use_locking"
    value {
      b: true
    }
  }
  attr {
    key: "validate_shape"
    value {
      b: true
    }
  }
}
node {
  name: "save/Assign_38"
  op: "Assign"
  input: "global/global_step"
  input: "save/RestoreV2:38"
  device: "/job:master/task:0"
  attr {
    key: "T"
    value {
      type: DT_INT32
    }
  }
  attr {
    key: "_class"
    value {
      list {
        s: "loc:@global/global_step"
      }
    }
  }
  attr {
    key: "_output_shapes"
    value {
      list {
        shape {
        }
      }
    }
  }
  attr {
    key: "use_locking"
    value {
      b: true
    }
  }
  attr {
    key: "validate_shape"
    value {
      b: true
    }
  }
}
node {
  name: "save/Assign_39"
  op: "Assign"
  input: "global/rnn/basic_lstm_cell/bias"
  input: "save/RestoreV2:39"
  device: "/job:master/task:0"
  attr {
    key: "T"
    value {
      type: DT_FLOAT
    }
  }
  attr {
    key: "_class"
    value {
      list {
        s: "loc:@global/rnn/basic_lstm_cell/bias"
      }
    }
  }
  attr {
    key: "_output_shapes"
    value {
      list {
        shape {
          dim {
            size: 1024
          }
        }
      }
    }
  }
  attr {
    key: "use_locking"
    value {
      b: true
    }
  }
  attr {
    key: "validate_shape"
    value {
      b: true
    }
  }
}
node {
  name: "save/Assign_40"
  op: "Assign"
  input: "global/rnn/basic_lstm_cell/bias/Adam"
  input: "save/RestoreV2:40"
  device: "/job:master/task:0"
  attr {
    key: "T"
    value {
      type: DT_FLOAT
    }
  }
  attr {
    key: "_class"
    value {
      list {
        s: "loc:@global/rnn/basic_lstm_cell/bias"
      }
    }
  }
  attr {
    key: "_output_shapes"
    value {
      list {
        shape {
          dim {
            size: 1024
          }
        }
      }
    }
  }
  attr {
    key: "use_locking"
    value {
      b: true
    }
  }
  attr {
    key: "validate_shape"
    value {
      b: true
    }
  }
}
node {
  name: "save/Assign_41"
  op: "Assign"
  input: "global/rnn/basic_lstm_cell/bias/Adam_1"
  input: "save/RestoreV2:41"
  device: "/job:master/task:0"
  attr {
    key: "T"
    value {
      type: DT_FLOAT
    }
  }
  attr {
    key: "_class"
    value {
      list {
        s: "loc:@global/rnn/basic_lstm_cell/bias"
      }
    }
  }
  attr {
    key: "_output_shapes"
    value {
      list {
        shape {
          dim {
            size: 1024
          }
        }
      }
    }
  }
  attr {
    key: "use_locking"
    value {
      b: true
    }
  }
  attr {
    key: "validate_shape"
    value {
      b: true
    }
  }
}
node {
  name: "save/Assign_42"
  op: "Assign"
  input: "global/rnn/basic_lstm_cell/kernel"
  input: "save/RestoreV2:42"
  device: "/job:master/task:0"
  attr {
    key: "T"
    value {
      type: DT_FLOAT
    }
  }
  attr {
    key: "_class"
    value {
      list {
        s: "loc:@global/rnn/basic_lstm_cell/kernel"
      }
    }
  }
  attr {
    key: "_output_shapes"
    value {
      list {
        shape {
          dim {
            size: 511
          }
          dim {
            size: 1024
          }
        }
      }
    }
  }
  attr {
    key: "use_locking"
    value {
      b: true
    }
  }
  attr {
    key: "validate_shape"
    value {
      b: true
    }
  }
}
node {
  name: "save/Assign_43"
  op: "Assign"
  input: "global/rnn/basic_lstm_cell/kernel/Adam"
  input: "save/RestoreV2:43"
  device: "/job:master/task:0"
  attr {
    key: "T"
    value {
      type: DT_FLOAT
    }
  }
  attr {
    key: "_class"
    value {
      list {
        s: "loc:@global/rnn/basic_lstm_cell/kernel"
      }
    }
  }
  attr {
    key: "_output_shapes"
    value {
      list {
        shape {
          dim {
            size: 511
          }
          dim {
            size: 1024
          }
        }
      }
    }
  }
  attr {
    key: "use_locking"
    value {
      b: true
    }
  }
  attr {
    key: "validate_shape"
    value {
      b: true
    }
  }
}
node {
  name: "save/Assign_44"
  op: "Assign"
  input: "global/rnn/basic_lstm_cell/kernel/Adam_1"
  input: "save/RestoreV2:44"
  device: "/job:master/task:0"
  attr {
    key: "T"
    value {
      type: DT_FLOAT
    }
  }
  attr {
    key: "_class"
    value {
      list {
        s: "loc:@global/rnn/basic_lstm_cell/kernel"
      }
    }
  }
  attr {
    key: "_output_shapes"
    value {
      list {
        shape {
          dim {
            size: 511
          }
          dim {
            size: 1024
          }
        }
      }
    }
  }
  attr {
    key: "use_locking"
    value {
      b: true
    }
  }
  attr {
    key: "validate_shape"
    value {
      b: true
    }
  }
}
node {
  name: "save/restore_all"
  op: "NoOp"
  input: "^save/Assign"
  input: "^save/Assign_1"
  input: "^save/Assign_10"
  input: "^save/Assign_11"
  input: "^save/Assign_12"
  input: "^save/Assign_13"
  input: "^save/Assign_14"
  input: "^save/Assign_15"
  input: "^save/Assign_16"
  input: "^save/Assign_17"
  input: "^save/Assign_18"
  input: "^save/Assign_19"
  input: "^save/Assign_2"
  input: "^save/Assign_20"
  input: "^save/Assign_21"
  input: "^save/Assign_22"
  input: "^save/Assign_23"
  input: "^save/Assign_24"
  input: "^save/Assign_25"
  input: "^save/Assign_26"
  input: "^save/Assign_27"
  input: "^save/Assign_28"
  input: "^save/Assign_29"
  input: "^save/Assign_3"
  input: "^save/Assign_30"
  input: "^save/Assign_31"
  input: "^save/Assign_32"
  input: "^save/Assign_33"
  input: "^save/Assign_34"
  input: "^save/Assign_35"
  input: "^save/Assign_36"
  input: "^save/Assign_37"
  input: "^save/Assign_38"
  input: "^save/Assign_39"
  input: "^save/Assign_4"
  input: "^save/Assign_40"
  input: "^save/Assign_41"
  input: "^save/Assign_42"
  input: "^save/Assign_43"
  input: "^save/Assign_44"
  input: "^save/Assign_5"
  input: "^save/Assign_6"
  input: "^save/Assign_7"
  input: "^save/Assign_8"
  input: "^save/Assign_9"
  device: "/job:master/task:0"
}
node {
  name: "init_2"
  op: "NoOp"
}
node {
  name: "init_all_tables"
  op: "NoOp"
}
node {
  name: "group_deps"
  op: "NoOp"
  input: "^init_2"
  input: "^init_all_tables"
}
versions {
  producer: 134
}
